node {
  name: "input"
  op: "Placeholder"
  attr {
    key: "dtype"
    value {
      type: DT_FLOAT
    }
  }
  attr {
    key: "shape"
    value {
      shape {
        dim {
          size: -1
        }
        dim {
          size: 224
        }
        dim {
          size: 224
        }
        dim {
          size: 3
        }
      }
    }
  }
}
node {
  name: "v0/conv0/Pad/paddings"
  op: "Const"
  attr {
    key: "dtype"
    value {
      type: DT_INT32
    }
  }
  attr {
    key: "value"
    value {
      tensor {
        dtype: DT_INT32
        tensor_shape {
          dim {
            size: 4
          }
          dim {
            size: 2
          }
        }
        tensor_content: "…"
      }
    }
  }
}
node {
  name: "v0/conv0/Pad"
  op: "Pad"
  input: "input"
  input: "v0/conv0/Pad/paddings"
  attr {
    key: "T"
    value {
      type: DT_FLOAT
    }
  }
  attr {
    key: "Tpaddings"
    value {
      type: DT_INT32
    }
  }
}
node {
  name: "v0/conv0/conv2d/kernel"
  op: "VariableV2"
  attr {
    key: "_class"
    value {
      list {
        s: "loc:@v0/conv0/conv2d/kernel"
      }
    }
  }
  attr {
    key: "container"
    value {
      s: ""
    }
  }
  attr {
    key: "dtype"
    value {
      type: DT_FLOAT
    }
  }
  attr {
    key: "shape"
    value {
      shape {
        dim {
          size: 7
        }
        dim {
          size: 7
        }
        dim {
          size: 3
        }
        dim {
          size: 64
        }
      }
    }
  }
  attr {
    key: "shared_name"
    value {
      s: ""
    }
  }
}
node {
  name: "v0/conv0/conv2d/kernel/read"
  op: "Identity"
  input: "v0/conv0/conv2d/kernel"
  attr {
    key: "T"
    value {
      type: DT_FLOAT
    }
  }
  attr {
    key: "_class"
    value {
      list {
        s: "loc:@v0/conv0/conv2d/kernel"
      }
    }
  }
}
node {
  name: "v0/conv0/conv2d/Conv2D"
  op: "Conv2D"
  input: "v0/conv0/Pad"
  input: "v0/conv0/conv2d/kernel/read"
  attr {
    key: "T"
    value {
      type: DT_FLOAT
    }
  }
  attr {
    key: "data_format"
    value {
      s: "NHWC"
    }
  }
  attr {
    key: "dilations"
    value {
      list {
        i: 1
        i: 1
        i: 1
        i: 1
      }
    }
  }
  attr {
    key: "padding"
    value {
      s: "VALID"
    }
  }
  attr {
    key: "strides"
    value {
      list {
        i: 1
        i: 2
        i: 2
        i: 1
      }
    }
  }
  attr {
    key: "use_cudnn_on_gpu"
    value {
      b: true
    }
  }
}
node {
  name: "v0/conv0/batchnorm0/gamma"
  op: "VariableV2"
  attr {
    key: "_class"
    value {
      list {
        s: "loc:@v0/conv0/batchnorm0/gamma"
      }
    }
  }
  attr {
    key: "container"
    value {
      s: ""
    }
  }
  attr {
    key: "dtype"
    value {
      type: DT_FLOAT
    }
  }
  attr {
    key: "shape"
    value {
      shape {
        dim {
          size: 64
        }
      }
    }
  }
  attr {
    key: "shared_name"
    value {
      s: ""
    }
  }
}
node {
  name: "v0/conv0/batchnorm0/gamma/read"
  op: "Identity"
  input: "v0/conv0/batchnorm0/gamma"
  attr {
    key: "T"
    value {
      type: DT_FLOAT
    }
  }
  attr {
    key: "_class"
    value {
      list {
        s: "loc:@v0/conv0/batchnorm0/gamma"
      }
    }
  }
}
node {
  name: "v0/conv0/batchnorm0/beta"
  op: "VariableV2"
  attr {
    key: "_class"
    value {
      list {
        s: "loc:@v0/conv0/batchnorm0/beta"
      }
    }
  }
  attr {
    key: "container"
    value {
      s: ""
    }
  }
  attr {
    key: "dtype"
    value {
      type: DT_FLOAT
    }
  }
  attr {
    key: "shape"
    value {
      shape {
        dim {
          size: 64
        }
      }
    }
  }
  attr {
    key: "shared_name"
    value {
      s: ""
    }
  }
}
node {
  name: "v0/conv0/batchnorm0/beta/read"
  op: "Identity"
  input: "v0/conv0/batchnorm0/beta"
  attr {
    key: "T"
    value {
      type: DT_FLOAT
    }
  }
  attr {
    key: "_class"
    value {
      list {
        s: "loc:@v0/conv0/batchnorm0/beta"
      }
    }
  }
}
node {
  name: "v0/conv0/batchnorm0/moving_mean"
  op: "VariableV2"
  attr {
    key: "_class"
    value {
      list {
        s: "loc:@v0/conv0/batchnorm0/moving_mean"
      }
    }
  }
  attr {
    key: "container"
    value {
      s: ""
    }
  }
  attr {
    key: "dtype"
    value {
      type: DT_FLOAT
    }
  }
  attr {
    key: "shape"
    value {
      shape {
        dim {
          size: 64
        }
      }
    }
  }
  attr {
    key: "shared_name"
    value {
      s: ""
    }
  }
}
node {
  name: "v0/conv0/batchnorm0/moving_mean/read"
  op: "Identity"
  input: "v0/conv0/batchnorm0/moving_mean"
  attr {
    key: "T"
    value {
      type: DT_FLOAT
    }
  }
  attr {
    key: "_class"
    value {
      list {
        s: "loc:@v0/conv0/batchnorm0/moving_mean"
      }
    }
  }
}
node {
  name: "v0/conv0/batchnorm0/moving_variance"
  op: "VariableV2"
  attr {
    key: "_class"
    value {
      list {
        s: "loc:@v0/conv0/batchnorm0/moving_variance"
      }
    }
  }
  attr {
    key: "container"
    value {
      s: ""
    }
  }
  attr {
    key: "dtype"
    value {
      type: DT_FLOAT
    }
  }
  attr {
    key: "shape"
    value {
      shape {
        dim {
          size: 64
        }
      }
    }
  }
  attr {
    key: "shared_name"
    value {
      s: ""
    }
  }
}
node {
  name: "v0/conv0/batchnorm0/moving_variance/read"
  op: "Identity"
  input: "v0/conv0/batchnorm0/moving_variance"
  attr {
    key: "T"
    value {
      type: DT_FLOAT
    }
  }
  attr {
    key: "_class"
    value {
      list {
        s: "loc:@v0/conv0/batchnorm0/moving_variance"
      }
    }
  }
}
node {
  name: "v0/conv0/batchnorm0/FusedBatchNorm"
  op: "FusedBatchNorm"
  input: "v0/conv0/conv2d/Conv2D"
  input: "v0/conv0/batchnorm0/gamma/read"
  input: "v0/conv0/batchnorm0/beta/read"
  input: "v0/conv0/batchnorm0/moving_mean/read"
  input: "v0/conv0/batchnorm0/moving_variance/read"
  attr {
    key: "T"
    value {
      type: DT_FLOAT
    }
  }
  attr {
    key: "data_format"
    value {
      s: "NHWC"
    }
  }
  attr {
    key: "epsilon"
    value {
      f: 1.00099996416e-05
    }
  }
  attr {
    key: "is_training"
    value {
      b: false
    }
  }
}
node {
  name: "v0/conv0/Relu"
  op: "Relu"
  input: "v0/conv0/batchnorm0/FusedBatchNorm"
  attr {
    key: "T"
    value {
      type: DT_FLOAT
    }
  }
}
node {
  name: "v0/mpool0/MaxPool"
  op: "MaxPool"
  input: "v0/conv0/Relu"
  attr {
    key: "T"
    value {
      type: DT_FLOAT
    }
  }
  attr {
    key: "data_format"
    value {
      s: "NHWC"
    }
  }
  attr {
    key: "ksize"
    value {
      list {
        i: 1
        i: 3
        i: 3
        i: 1
      }
    }
  }
  attr {
    key: "padding"
    value {
      s: "VALID"
    }
  }
  attr {
    key: "strides"
    value {
      list {
        i: 1
        i: 2
        i: 2
        i: 1
      }
    }
  }
}
node {
  name: "v0/resnet_v10/conv1/conv2d/kernel"
  op: "VariableV2"
  attr {
    key: "_class"
    value {
      list {
        s: "loc:@v0/resnet_v10/conv1/conv2d/kernel"
      }
    }
  }
  attr {
    key: "container"
    value {
      s: ""
    }
  }
  attr {
    key: "dtype"
    value {
      type: DT_FLOAT
    }
  }
  attr {
    key: "shape"
    value {
      shape {
        dim {
          size: 1
        }
        dim {
          size: 1
        }
        dim {
          size: 64
        }
        dim {
          size: 256
        }
      }
    }
  }
  attr {
    key: "shared_name"
    value {
      s: ""
    }
  }
}
node {
  name: "v0/resnet_v10/conv1/conv2d/kernel/read"
  op: "Identity"
  input: "v0/resnet_v10/conv1/conv2d/kernel"
  attr {
    key: "T"
    value {
      type: DT_FLOAT
    }
  }
  attr {
    key: "_class"
    value {
      list {
        s: "loc:@v0/resnet_v10/conv1/conv2d/kernel"
      }
    }
  }
}
node {
  name: "v0/resnet_v10/conv1/conv2d/Conv2D"
  op: "Conv2D"
  input: "v0/mpool0/MaxPool"
  input: "v0/resnet_v10/conv1/conv2d/kernel/read"
  attr {
    key: "T"
    value {
      type: DT_FLOAT
    }
  }
  attr {
    key: "data_format"
    value {
      s: "NHWC"
    }
  }
  attr {
    key: "dilations"
    value {
      list {
        i: 1
        i: 1
        i: 1
        i: 1
      }
    }
  }
  attr {
    key: "padding"
    value {
      s: "SAME"
    }
  }
  attr {
    key: "strides"
    value {
      list {
        i: 1
        i: 1
        i: 1
        i: 1
      }
    }
  }
  attr {
    key: "use_cudnn_on_gpu"
    value {
      b: true
    }
  }
}
node {
  name: "v0/resnet_v10/conv1/batchnorm1/gamma"
  op: "VariableV2"
  attr {
    key: "_class"
    value {
      list {
        s: "loc:@v0/resnet_v10/conv1/batchnorm1/gamma"
      }
    }
  }
  attr {
    key: "container"
    value {
      s: ""
    }
  }
  attr {
    key: "dtype"
    value {
      type: DT_FLOAT
    }
  }
  attr {
    key: "shape"
    value {
      shape {
        dim {
          size: 256
        }
      }
    }
  }
  attr {
    key: "shared_name"
    value {
      s: ""
    }
  }
}
node {
  name: "v0/resnet_v10/conv1/batchnorm1/gamma/read"
  op: "Identity"
  input: "v0/resnet_v10/conv1/batchnorm1/gamma"
  attr {
    key: "T"
    value {
      type: DT_FLOAT
    }
  }
  attr {
    key: "_class"
    value {
      list {
        s: "loc:@v0/resnet_v10/conv1/batchnorm1/gamma"
      }
    }
  }
}
node {
  name: "v0/resnet_v10/conv1/batchnorm1/beta"
  op: "VariableV2"
  attr {
    key: "_class"
    value {
      list {
        s: "loc:@v0/resnet_v10/conv1/batchnorm1/beta"
      }
    }
  }
  attr {
    key: "container"
    value {
      s: ""
    }
  }
  attr {
    key: "dtype"
    value {
      type: DT_FLOAT
    }
  }
  attr {
    key: "shape"
    value {
      shape {
        dim {
          size: 256
        }
      }
    }
  }
  attr {
    key: "shared_name"
    value {
      s: ""
    }
  }
}
node {
  name: "v0/resnet_v10/conv1/batchnorm1/beta/read"
  op: "Identity"
  input: "v0/resnet_v10/conv1/batchnorm1/beta"
  attr {
    key: "T"
    value {
      type: DT_FLOAT
    }
  }
  attr {
    key: "_class"
    value {
      list {
        s: "loc:@v0/resnet_v10/conv1/batchnorm1/beta"
      }
    }
  }
}
node {
  name: "v0/resnet_v10/conv1/batchnorm1/moving_mean"
  op: "VariableV2"
  attr {
    key: "_class"
    value {
      list {
        s: "loc:@v0/resnet_v10/conv1/batchnorm1/moving_mean"
      }
    }
  }
  attr {
    key: "container"
    value {
      s: ""
    }
  }
  attr {
    key: "dtype"
    value {
      type: DT_FLOAT
    }
  }
  attr {
    key: "shape"
    value {
      shape {
        dim {
          size: 256
        }
      }
    }
  }
  attr {
    key: "shared_name"
    value {
      s: ""
    }
  }
}
node {
  name: "v0/resnet_v10/conv1/batchnorm1/moving_mean/read"
  op: "Identity"
  input: "v0/resnet_v10/conv1/batchnorm1/moving_mean"
  attr {
    key: "T"
    value {
      type: DT_FLOAT
    }
  }
  attr {
    key: "_class"
    value {
      list {
        s: "loc:@v0/resnet_v10/conv1/batchnorm1/moving_mean"
      }
    }
  }
}
node {
  name: "v0/resnet_v10/conv1/batchnorm1/moving_variance"
  op: "VariableV2"
  attr {
    key: "_class"
    value {
      list {
        s: "loc:@v0/resnet_v10/conv1/batchnorm1/moving_variance"
      }
    }
  }
  attr {
    key: "container"
    value {
      s: ""
    }
  }
  attr {
    key: "dtype"
    value {
      type: DT_FLOAT
    }
  }
  attr {
    key: "shape"
    value {
      shape {
        dim {
          size: 256
        }
      }
    }
  }
  attr {
    key: "shared_name"
    value {
      s: ""
    }
  }
}
node {
  name: "v0/resnet_v10/conv1/batchnorm1/moving_variance/read"
  op: "Identity"
  input: "v0/resnet_v10/conv1/batchnorm1/moving_variance"
  attr {
    key: "T"
    value {
      type: DT_FLOAT
    }
  }
  attr {
    key: "_class"
    value {
      list {
        s: "loc:@v0/resnet_v10/conv1/batchnorm1/moving_variance"
      }
    }
  }
}
node {
  name: "v0/resnet_v10/conv1/batchnorm1/FusedBatchNorm"
  op: "FusedBatchNorm"
  input: "v0/resnet_v10/conv1/conv2d/Conv2D"
  input: "v0/resnet_v10/conv1/batchnorm1/gamma/read"
  input: "v0/resnet_v10/conv1/batchnorm1/beta/read"
  input: "v0/resnet_v10/conv1/batchnorm1/moving_mean/read"
  input: "v0/resnet_v10/conv1/batchnorm1/moving_variance/read"
  attr {
    key: "T"
    value {
      type: DT_FLOAT
    }
  }
  attr {
    key: "data_format"
    value {
      s: "NHWC"
    }
  }
  attr {
    key: "epsilon"
    value {
      f: 1.00099996416e-05
    }
  }
  attr {
    key: "is_training"
    value {
      b: false
    }
  }
}
node {
  name: "v0/resnet_v10/conv2/conv2d/kernel"
  op: "VariableV2"
  attr {
    key: "_class"
    value {
      list {
        s: "loc:@v0/resnet_v10/conv2/conv2d/kernel"
      }
    }
  }
  attr {
    key: "container"
    value {
      s: ""
    }
  }
  attr {
    key: "dtype"
    value {
      type: DT_FLOAT
    }
  }
  attr {
    key: "shape"
    value {
      shape {
        dim {
          size: 1
        }
        dim {
          size: 1
        }
        dim {
          size: 64
        }
        dim {
          size: 64
        }
      }
    }
  }
  attr {
    key: "shared_name"
    value {
      s: ""
    }
  }
}
node {
  name: "v0/resnet_v10/conv2/conv2d/kernel/read"
  op: "Identity"
  input: "v0/resnet_v10/conv2/conv2d/kernel"
  attr {
    key: "T"
    value {
      type: DT_FLOAT
    }
  }
  attr {
    key: "_class"
    value {
      list {
        s: "loc:@v0/resnet_v10/conv2/conv2d/kernel"
      }
    }
  }
}
node {
  name: "v0/resnet_v10/conv2/conv2d/Conv2D"
  op: "Conv2D"
  input: "v0/mpool0/MaxPool"
  input: "v0/resnet_v10/conv2/conv2d/kernel/read"
  attr {
    key: "T"
    value {
      type: DT_FLOAT
    }
  }
  attr {
    key: "data_format"
    value {
      s: "NHWC"
    }
  }
  attr {
    key: "dilations"
    value {
      list {
        i: 1
        i: 1
        i: 1
        i: 1
      }
    }
  }
  attr {
    key: "padding"
    value {
      s: "SAME"
    }
  }
  attr {
    key: "strides"
    value {
      list {
        i: 1
        i: 1
        i: 1
        i: 1
      }
    }
  }
  attr {
    key: "use_cudnn_on_gpu"
    value {
      b: true
    }
  }
}
node {
  name: "v0/resnet_v10/conv2/batchnorm2/gamma"
  op: "VariableV2"
  attr {
    key: "_class"
    value {
      list {
        s: "loc:@v0/resnet_v10/conv2/batchnorm2/gamma"
      }
    }
  }
  attr {
    key: "container"
    value {
      s: ""
    }
  }
  attr {
    key: "dtype"
    value {
      type: DT_FLOAT
    }
  }
  attr {
    key: "shape"
    value {
      shape {
        dim {
          size: 64
        }
      }
    }
  }
  attr {
    key: "shared_name"
    value {
      s: ""
    }
  }
}
node {
  name: "v0/resnet_v10/conv2/batchnorm2/gamma/read"
  op: "Identity"
  input: "v0/resnet_v10/conv2/batchnorm2/gamma"
  attr {
    key: "T"
    value {
      type: DT_FLOAT
    }
  }
  attr {
    key: "_class"
    value {
      list {
        s: "loc:@v0/resnet_v10/conv2/batchnorm2/gamma"
      }
    }
  }
}
node {
  name: "v0/resnet_v10/conv2/batchnorm2/beta"
  op: "VariableV2"
  attr {
    key: "_class"
    value {
      list {
        s: "loc:@v0/resnet_v10/conv2/batchnorm2/beta"
      }
    }
  }
  attr {
    key: "container"
    value {
      s: ""
    }
  }
  attr {
    key: "dtype"
    value {
      type: DT_FLOAT
    }
  }
  attr {
    key: "shape"
    value {
      shape {
        dim {
          size: 64
        }
      }
    }
  }
  attr {
    key: "shared_name"
    value {
      s: ""
    }
  }
}
node {
  name: "v0/resnet_v10/conv2/batchnorm2/beta/read"
  op: "Identity"
  input: "v0/resnet_v10/conv2/batchnorm2/beta"
  attr {
    key: "T"
    value {
      type: DT_FLOAT
    }
  }
  attr {
    key: "_class"
    value {
      list {
        s: "loc:@v0/resnet_v10/conv2/batchnorm2/beta"
      }
    }
  }
}
node {
  name: "v0/resnet_v10/conv2/batchnorm2/moving_mean"
  op: "VariableV2"
  attr {
    key: "_class"
    value {
      list {
        s: "loc:@v0/resnet_v10/conv2/batchnorm2/moving_mean"
      }
    }
  }
  attr {
    key: "container"
    value {
      s: ""
    }
  }
  attr {
    key: "dtype"
    value {
      type: DT_FLOAT
    }
  }
  attr {
    key: "shape"
    value {
      shape {
        dim {
          size: 64
        }
      }
    }
  }
  attr {
    key: "shared_name"
    value {
      s: ""
    }
  }
}
node {
  name: "v0/resnet_v10/conv2/batchnorm2/moving_mean/read"
  op: "Identity"
  input: "v0/resnet_v10/conv2/batchnorm2/moving_mean"
  attr {
    key: "T"
    value {
      type: DT_FLOAT
    }
  }
  attr {
    key: "_class"
    value {
      list {
        s: "loc:@v0/resnet_v10/conv2/batchnorm2/moving_mean"
      }
    }
  }
}
node {
  name: "v0/resnet_v10/conv2/batchnorm2/moving_variance"
  op: "VariableV2"
  attr {
    key: "_class"
    value {
      list {
        s: "loc:@v0/resnet_v10/conv2/batchnorm2/moving_variance"
      }
    }
  }
  attr {
    key: "container"
    value {
      s: ""
    }
  }
  attr {
    key: "dtype"
    value {
      type: DT_FLOAT
    }
  }
  attr {
    key: "shape"
    value {
      shape {
        dim {
          size: 64
        }
      }
    }
  }
  attr {
    key: "shared_name"
    value {
      s: ""
    }
  }
}
node {
  name: "v0/resnet_v10/conv2/batchnorm2/moving_variance/read"
  op: "Identity"
  input: "v0/resnet_v10/conv2/batchnorm2/moving_variance"
  attr {
    key: "T"
    value {
      type: DT_FLOAT
    }
  }
  attr {
    key: "_class"
    value {
      list {
        s: "loc:@v0/resnet_v10/conv2/batchnorm2/moving_variance"
      }
    }
  }
}
node {
  name: "v0/resnet_v10/conv2/batchnorm2/FusedBatchNorm"
  op: "FusedBatchNorm"
  input: "v0/resnet_v10/conv2/conv2d/Conv2D"
  input: "v0/resnet_v10/conv2/batchnorm2/gamma/read"
  input: "v0/resnet_v10/conv2/batchnorm2/beta/read"
  input: "v0/resnet_v10/conv2/batchnorm2/moving_mean/read"
  input: "v0/resnet_v10/conv2/batchnorm2/moving_variance/read"
  attr {
    key: "T"
    value {
      type: DT_FLOAT
    }
  }
  attr {
    key: "data_format"
    value {
      s: "NHWC"
    }
  }
  attr {
    key: "epsilon"
    value {
      f: 1.00099996416e-05
    }
  }
  attr {
    key: "is_training"
    value {
      b: false
    }
  }
}
node {
  name: "v0/resnet_v10/conv2/Relu"
  op: "Relu"
  input: "v0/resnet_v10/conv2/batchnorm2/FusedBatchNorm"
  attr {
    key: "T"
    value {
      type: DT_FLOAT
    }
  }
}
node {
  name: "v0/resnet_v10/conv3/conv2d/kernel"
  op: "VariableV2"
  attr {
    key: "_class"
    value {
      list {
        s: "loc:@v0/resnet_v10/conv3/conv2d/kernel"
      }
    }
  }
  attr {
    key: "container"
    value {
      s: ""
    }
  }
  attr {
    key: "dtype"
    value {
      type: DT_FLOAT
    }
  }
  attr {
    key: "shape"
    value {
      shape {
        dim {
          size: 3
        }
        dim {
          size: 3
        }
        dim {
          size: 64
        }
        dim {
          size: 64
        }
      }
    }
  }
  attr {
    key: "shared_name"
    value {
      s: ""
    }
  }
}
node {
  name: "v0/resnet_v10/conv3/conv2d/kernel/read"
  op: "Identity"
  input: "v0/resnet_v10/conv3/conv2d/kernel"
  attr {
    key: "T"
    value {
      type: DT_FLOAT
    }
  }
  attr {
    key: "_class"
    value {
      list {
        s: "loc:@v0/resnet_v10/conv3/conv2d/kernel"
      }
    }
  }
}
node {
  name: "v0/resnet_v10/conv3/conv2d/Conv2D"
  op: "Conv2D"
  input: "v0/resnet_v10/conv2/Relu"
  input: "v0/resnet_v10/conv3/conv2d/kernel/read"
  attr {
    key: "T"
    value {
      type: DT_FLOAT
    }
  }
  attr {
    key: "data_format"
    value {
      s: "NHWC"
    }
  }
  attr {
    key: "dilations"
    value {
      list {
        i: 1
        i: 1
        i: 1
        i: 1
      }
    }
  }
  attr {
    key: "padding"
    value {
      s: "SAME"
    }
  }
  attr {
    key: "strides"
    value {
      list {
        i: 1
        i: 1
        i: 1
        i: 1
      }
    }
  }
  attr {
    key: "use_cudnn_on_gpu"
    value {
      b: true
    }
  }
}
node {
  name: "v0/resnet_v10/conv3/batchnorm3/gamma"
  op: "VariableV2"
  attr {
    key: "_class"
    value {
      list {
        s: "loc:@v0/resnet_v10/conv3/batchnorm3/gamma"
      }
    }
  }
  attr {
    key: "container"
    value {
      s: ""
    }
  }
  attr {
    key: "dtype"
    value {
      type: DT_FLOAT
    }
  }
  attr {
    key: "shape"
    value {
      shape {
        dim {
          size: 64
        }
      }
    }
  }
  attr {
    key: "shared_name"
    value {
      s: ""
    }
  }
}
node {
  name: "v0/resnet_v10/conv3/batchnorm3/gamma/read"
  op: "Identity"
  input: "v0/resnet_v10/conv3/batchnorm3/gamma"
  attr {
    key: "T"
    value {
      type: DT_FLOAT
    }
  }
  attr {
    key: "_class"
    value {
      list {
        s: "loc:@v0/resnet_v10/conv3/batchnorm3/gamma"
      }
    }
  }
}
node {
  name: "v0/resnet_v10/conv3/batchnorm3/beta"
  op: "VariableV2"
  attr {
    key: "_class"
    value {
      list {
        s: "loc:@v0/resnet_v10/conv3/batchnorm3/beta"
      }
    }
  }
  attr {
    key: "container"
    value {
      s: ""
    }
  }
  attr {
    key: "dtype"
    value {
      type: DT_FLOAT
    }
  }
  attr {
    key: "shape"
    value {
      shape {
        dim {
          size: 64
        }
      }
    }
  }
  attr {
    key: "shared_name"
    value {
      s: ""
    }
  }
}
node {
  name: "v0/resnet_v10/conv3/batchnorm3/beta/read"
  op: "Identity"
  input: "v0/resnet_v10/conv3/batchnorm3/beta"
  attr {
    key: "T"
    value {
      type: DT_FLOAT
    }
  }
  attr {
    key: "_class"
    value {
      list {
        s: "loc:@v0/resnet_v10/conv3/batchnorm3/beta"
      }
    }
  }
}
node {
  name: "v0/resnet_v10/conv3/batchnorm3/moving_mean"
  op: "VariableV2"
  attr {
    key: "_class"
    value {
      list {
        s: "loc:@v0/resnet_v10/conv3/batchnorm3/moving_mean"
      }
    }
  }
  attr {
    key: "container"
    value {
      s: ""
    }
  }
  attr {
    key: "dtype"
    value {
      type: DT_FLOAT
    }
  }
  attr {
    key: "shape"
    value {
      shape {
        dim {
          size: 64
        }
      }
    }
  }
  attr {
    key: "shared_name"
    value {
      s: ""
    }
  }
}
node {
  name: "v0/resnet_v10/conv3/batchnorm3/moving_mean/read"
  op: "Identity"
  input: "v0/resnet_v10/conv3/batchnorm3/moving_mean"
  attr {
    key: "T"
    value {
      type: DT_FLOAT
    }
  }
  attr {
    key: "_class"
    value {
      list {
        s: "loc:@v0/resnet_v10/conv3/batchnorm3/moving_mean"
      }
    }
  }
}
node {
  name: "v0/resnet_v10/conv3/batchnorm3/moving_variance"
  op: "VariableV2"
  attr {
    key: "_class"
    value {
      list {
        s: "loc:@v0/resnet_v10/conv3/batchnorm3/moving_variance"
      }
    }
  }
  attr {
    key: "container"
    value {
      s: ""
    }
  }
  attr {
    key: "dtype"
    value {
      type: DT_FLOAT
    }
  }
  attr {
    key: "shape"
    value {
      shape {
        dim {
          size: 64
        }
      }
    }
  }
  attr {
    key: "shared_name"
    value {
      s: ""
    }
  }
}
node {
  name: "v0/resnet_v10/conv3/batchnorm3/moving_variance/read"
  op: "Identity"
  input: "v0/resnet_v10/conv3/batchnorm3/moving_variance"
  attr {
    key: "T"
    value {
      type: DT_FLOAT
    }
  }
  attr {
    key: "_class"
    value {
      list {
        s: "loc:@v0/resnet_v10/conv3/batchnorm3/moving_variance"
      }
    }
  }
}
node {
  name: "v0/resnet_v10/conv3/batchnorm3/FusedBatchNorm"
  op: "FusedBatchNorm"
  input: "v0/resnet_v10/conv3/conv2d/Conv2D"
  input: "v0/resnet_v10/conv3/batchnorm3/gamma/read"
  input: "v0/resnet_v10/conv3/batchnorm3/beta/read"
  input: "v0/resnet_v10/conv3/batchnorm3/moving_mean/read"
  input: "v0/resnet_v10/conv3/batchnorm3/moving_variance/read"
  attr {
    key: "T"
    value {
      type: DT_FLOAT
    }
  }
  attr {
    key: "data_format"
    value {
      s: "NHWC"
    }
  }
  attr {
    key: "epsilon"
    value {
      f: 1.00099996416e-05
    }
  }
  attr {
    key: "is_training"
    value {
      b: false
    }
  }
}
node {
  name: "v0/resnet_v10/conv3/Relu"
  op: "Relu"
  input: "v0/resnet_v10/conv3/batchnorm3/FusedBatchNorm"
  attr {
    key: "T"
    value {
      type: DT_FLOAT
    }
  }
}
node {
  name: "v0/resnet_v10/conv4/conv2d/kernel"
  op: "VariableV2"
  attr {
    key: "_class"
    value {
      list {
        s: "loc:@v0/resnet_v10/conv4/conv2d/kernel"
      }
    }
  }
  attr {
    key: "container"
    value {
      s: ""
    }
  }
  attr {
    key: "dtype"
    value {
      type: DT_FLOAT
    }
  }
  attr {
    key: "shape"
    value {
      shape {
        dim {
          size: 1
        }
        dim {
          size: 1
        }
        dim {
          size: 64
        }
        dim {
          size: 256
        }
      }
    }
  }
  attr {
    key: "shared_name"
    value {
      s: ""
    }
  }
}
node {
  name: "v0/resnet_v10/conv4/conv2d/kernel/read"
  op: "Identity"
  input: "v0/resnet_v10/conv4/conv2d/kernel"
  attr {
    key: "T"
    value {
      type: DT_FLOAT
    }
  }
  attr {
    key: "_class"
    value {
      list {
        s: "loc:@v0/resnet_v10/conv4/conv2d/kernel"
      }
    }
  }
}
node {
  name: "v0/resnet_v10/conv4/conv2d/Conv2D"
  op: "Conv2D"
  input: "v0/resnet_v10/conv3/Relu"
  input: "v0/resnet_v10/conv4/conv2d/kernel/read"
  attr {
    key: "T"
    value {
      type: DT_FLOAT
    }
  }
  attr {
    key: "data_format"
    value {
      s: "NHWC"
    }
  }
  attr {
    key: "dilations"
    value {
      list {
        i: 1
        i: 1
        i: 1
        i: 1
      }
    }
  }
  attr {
    key: "padding"
    value {
      s: "SAME"
    }
  }
  attr {
    key: "strides"
    value {
      list {
        i: 1
        i: 1
        i: 1
        i: 1
      }
    }
  }
  attr {
    key: "use_cudnn_on_gpu"
    value {
      b: true
    }
  }
}
node {
  name: "v0/resnet_v10/conv4/batchnorm4/gamma"
  op: "VariableV2"
  attr {
    key: "_class"
    value {
      list {
        s: "loc:@v0/resnet_v10/conv4/batchnorm4/gamma"
      }
    }
  }
  attr {
    key: "container"
    value {
      s: ""
    }
  }
  attr {
    key: "dtype"
    value {
      type: DT_FLOAT
    }
  }
  attr {
    key: "shape"
    value {
      shape {
        dim {
          size: 256
        }
      }
    }
  }
  attr {
    key: "shared_name"
    value {
      s: ""
    }
  }
}
node {
  name: "v0/resnet_v10/conv4/batchnorm4/gamma/read"
  op: "Identity"
  input: "v0/resnet_v10/conv4/batchnorm4/gamma"
  attr {
    key: "T"
    value {
      type: DT_FLOAT
    }
  }
  attr {
    key: "_class"
    value {
      list {
        s: "loc:@v0/resnet_v10/conv4/batchnorm4/gamma"
      }
    }
  }
}
node {
  name: "v0/resnet_v10/conv4/batchnorm4/beta"
  op: "VariableV2"
  attr {
    key: "_class"
    value {
      list {
        s: "loc:@v0/resnet_v10/conv4/batchnorm4/beta"
      }
    }
  }
  attr {
    key: "container"
    value {
      s: ""
    }
  }
  attr {
    key: "dtype"
    value {
      type: DT_FLOAT
    }
  }
  attr {
    key: "shape"
    value {
      shape {
        dim {
          size: 256
        }
      }
    }
  }
  attr {
    key: "shared_name"
    value {
      s: ""
    }
  }
}
node {
  name: "v0/resnet_v10/conv4/batchnorm4/beta/read"
  op: "Identity"
  input: "v0/resnet_v10/conv4/batchnorm4/beta"
  attr {
    key: "T"
    value {
      type: DT_FLOAT
    }
  }
  attr {
    key: "_class"
    value {
      list {
        s: "loc:@v0/resnet_v10/conv4/batchnorm4/beta"
      }
    }
  }
}
node {
  name: "v0/resnet_v10/conv4/batchnorm4/moving_mean"
  op: "VariableV2"
  attr {
    key: "_class"
    value {
      list {
        s: "loc:@v0/resnet_v10/conv4/batchnorm4/moving_mean"
      }
    }
  }
  attr {
    key: "container"
    value {
      s: ""
    }
  }
  attr {
    key: "dtype"
    value {
      type: DT_FLOAT
    }
  }
  attr {
    key: "shape"
    value {
      shape {
        dim {
          size: 256
        }
      }
    }
  }
  attr {
    key: "shared_name"
    value {
      s: ""
    }
  }
}
node {
  name: "v0/resnet_v10/conv4/batchnorm4/moving_mean/read"
  op: "Identity"
  input: "v0/resnet_v10/conv4/batchnorm4/moving_mean"
  attr {
    key: "T"
    value {
      type: DT_FLOAT
    }
  }
  attr {
    key: "_class"
    value {
      list {
        s: "loc:@v0/resnet_v10/conv4/batchnorm4/moving_mean"
      }
    }
  }
}
node {
  name: "v0/resnet_v10/conv4/batchnorm4/moving_variance"
  op: "VariableV2"
  attr {
    key: "_class"
    value {
      list {
        s: "loc:@v0/resnet_v10/conv4/batchnorm4/moving_variance"
      }
    }
  }
  attr {
    key: "container"
    value {
      s: ""
    }
  }
  attr {
    key: "dtype"
    value {
      type: DT_FLOAT
    }
  }
  attr {
    key: "shape"
    value {
      shape {
        dim {
          size: 256
        }
      }
    }
  }
  attr {
    key: "shared_name"
    value {
      s: ""
    }
  }
}
node {
  name: "v0/resnet_v10/conv4/batchnorm4/moving_variance/read"
  op: "Identity"
  input: "v0/resnet_v10/conv4/batchnorm4/moving_variance"
  attr {
    key: "T"
    value {
      type: DT_FLOAT
    }
  }
  attr {
    key: "_class"
    value {
      list {
        s: "loc:@v0/resnet_v10/conv4/batchnorm4/moving_variance"
      }
    }
  }
}
node {
  name: "v0/resnet_v10/conv4/batchnorm4/FusedBatchNorm"
  op: "FusedBatchNorm"
  input: "v0/resnet_v10/conv4/conv2d/Conv2D"
  input: "v0/resnet_v10/conv4/batchnorm4/gamma/read"
  input: "v0/resnet_v10/conv4/batchnorm4/beta/read"
  input: "v0/resnet_v10/conv4/batchnorm4/moving_mean/read"
  input: "v0/resnet_v10/conv4/batchnorm4/moving_variance/read"
  attr {
    key: "T"
    value {
      type: DT_FLOAT
    }
  }
  attr {
    key: "data_format"
    value {
      s: "NHWC"
    }
  }
  attr {
    key: "epsilon"
    value {
      f: 1.00099996416e-05
    }
  }
  attr {
    key: "is_training"
    value {
      b: false
    }
  }
}
node {
  name: "v0/resnet_v10/AddN"
  op: "AddN"
  input: "v0/resnet_v10/conv1/batchnorm1/FusedBatchNorm"
  input: "v0/resnet_v10/conv4/batchnorm4/FusedBatchNorm"
  attr {
    key: "N"
    value {
      i: 2
    }
  }
  attr {
    key: "T"
    value {
      type: DT_FLOAT
    }
  }
}
node {
  name: "v0/resnet_v10/Relu"
  op: "Relu"
  input: "v0/resnet_v10/AddN"
  attr {
    key: "T"
    value {
      type: DT_FLOAT
    }
  }
}
node {
  name: "v0/resnet_v11/conv5/conv2d/kernel"
  op: "VariableV2"
  attr {
    key: "_class"
    value {
      list {
        s: "loc:@v0/resnet_v11/conv5/conv2d/kernel"
      }
    }
  }
  attr {
    key: "container"
    value {
      s: ""
    }
  }
  attr {
    key: "dtype"
    value {
      type: DT_FLOAT
    }
  }
  attr {
    key: "shape"
    value {
      shape {
        dim {
          size: 1
        }
        dim {
          size: 1
        }
        dim {
          size: 256
        }
        dim {
          size: 64
        }
      }
    }
  }
  attr {
    key: "shared_name"
    value {
      s: ""
    }
  }
}
node {
  name: "v0/resnet_v11/conv5/conv2d/kernel/read"
  op: "Identity"
  input: "v0/resnet_v11/conv5/conv2d/kernel"
  attr {
    key: "T"
    value {
      type: DT_FLOAT
    }
  }
  attr {
    key: "_class"
    value {
      list {
        s: "loc:@v0/resnet_v11/conv5/conv2d/kernel"
      }
    }
  }
}
node {
  name: "v0/resnet_v11/conv5/conv2d/Conv2D"
  op: "Conv2D"
  input: "v0/resnet_v10/Relu"
  input: "v0/resnet_v11/conv5/conv2d/kernel/read"
  attr {
    key: "T"
    value {
      type: DT_FLOAT
    }
  }
  attr {
    key: "data_format"
    value {
      s: "NHWC"
    }
  }
  attr {
    key: "dilations"
    value {
      list {
        i: 1
        i: 1
        i: 1
        i: 1
      }
    }
  }
  attr {
    key: "padding"
    value {
      s: "SAME"
    }
  }
  attr {
    key: "strides"
    value {
      list {
        i: 1
        i: 1
        i: 1
        i: 1
      }
    }
  }
  attr {
    key: "use_cudnn_on_gpu"
    value {
      b: true
    }
  }
}
node {
  name: "v0/resnet_v11/conv5/batchnorm5/gamma"
  op: "VariableV2"
  attr {
    key: "_class"
    value {
      list {
        s: "loc:@v0/resnet_v11/conv5/batchnorm5/gamma"
      }
    }
  }
  attr {
    key: "container"
    value {
      s: ""
    }
  }
  attr {
    key: "dtype"
    value {
      type: DT_FLOAT
    }
  }
  attr {
    key: "shape"
    value {
      shape {
        dim {
          size: 64
        }
      }
    }
  }
  attr {
    key: "shared_name"
    value {
      s: ""
    }
  }
}
node {
  name: "v0/resnet_v11/conv5/batchnorm5/gamma/read"
  op: "Identity"
  input: "v0/resnet_v11/conv5/batchnorm5/gamma"
  attr {
    key: "T"
    value {
      type: DT_FLOAT
    }
  }
  attr {
    key: "_class"
    value {
      list {
        s: "loc:@v0/resnet_v11/conv5/batchnorm5/gamma"
      }
    }
  }
}
node {
  name: "v0/resnet_v11/conv5/batchnorm5/beta"
  op: "VariableV2"
  attr {
    key: "_class"
    value {
      list {
        s: "loc:@v0/resnet_v11/conv5/batchnorm5/beta"
      }
    }
  }
  attr {
    key: "container"
    value {
      s: ""
    }
  }
  attr {
    key: "dtype"
    value {
      type: DT_FLOAT
    }
  }
  attr {
    key: "shape"
    value {
      shape {
        dim {
          size: 64
        }
      }
    }
  }
  attr {
    key: "shared_name"
    value {
      s: ""
    }
  }
}
node {
  name: "v0/resnet_v11/conv5/batchnorm5/beta/read"
  op: "Identity"
  input: "v0/resnet_v11/conv5/batchnorm5/beta"
  attr {
    key: "T"
    value {
      type: DT_FLOAT
    }
  }
  attr {
    key: "_class"
    value {
      list {
        s: "loc:@v0/resnet_v11/conv5/batchnorm5/beta"
      }
    }
  }
}
node {
  name: "v0/resnet_v11/conv5/batchnorm5/moving_mean"
  op: "VariableV2"
  attr {
    key: "_class"
    value {
      list {
        s: "loc:@v0/resnet_v11/conv5/batchnorm5/moving_mean"
      }
    }
  }
  attr {
    key: "container"
    value {
      s: ""
    }
  }
  attr {
    key: "dtype"
    value {
      type: DT_FLOAT
    }
  }
  attr {
    key: "shape"
    value {
      shape {
        dim {
          size: 64
        }
      }
    }
  }
  attr {
    key: "shared_name"
    value {
      s: ""
    }
  }
}
node {
  name: "v0/resnet_v11/conv5/batchnorm5/moving_mean/read"
  op: "Identity"
  input: "v0/resnet_v11/conv5/batchnorm5/moving_mean"
  attr {
    key: "T"
    value {
      type: DT_FLOAT
    }
  }
  attr {
    key: "_class"
    value {
      list {
        s: "loc:@v0/resnet_v11/conv5/batchnorm5/moving_mean"
      }
    }
  }
}
node {
  name: "v0/resnet_v11/conv5/batchnorm5/moving_variance"
  op: "VariableV2"
  attr {
    key: "_class"
    value {
      list {
        s: "loc:@v0/resnet_v11/conv5/batchnorm5/moving_variance"
      }
    }
  }
  attr {
    key: "container"
    value {
      s: ""
    }
  }
  attr {
    key: "dtype"
    value {
      type: DT_FLOAT
    }
  }
  attr {
    key: "shape"
    value {
      shape {
        dim {
          size: 64
        }
      }
    }
  }
  attr {
    key: "shared_name"
    value {
      s: ""
    }
  }
}
node {
  name: "v0/resnet_v11/conv5/batchnorm5/moving_variance/read"
  op: "Identity"
  input: "v0/resnet_v11/conv5/batchnorm5/moving_variance"
  attr {
    key: "T"
    value {
      type: DT_FLOAT
    }
  }
  attr {
    key: "_class"
    value {
      list {
        s: "loc:@v0/resnet_v11/conv5/batchnorm5/moving_variance"
      }
    }
  }
}
node {
  name: "v0/resnet_v11/conv5/batchnorm5/FusedBatchNorm"
  op: "FusedBatchNorm"
  input: "v0/resnet_v11/conv5/conv2d/Conv2D"
  input: "v0/resnet_v11/conv5/batchnorm5/gamma/read"
  input: "v0/resnet_v11/conv5/batchnorm5/beta/read"
  input: "v0/resnet_v11/conv5/batchnorm5/moving_mean/read"
  input: "v0/resnet_v11/conv5/batchnorm5/moving_variance/read"
  attr {
    key: "T"
    value {
      type: DT_FLOAT
    }
  }
  attr {
    key: "data_format"
    value {
      s: "NHWC"
    }
  }
  attr {
    key: "epsilon"
    value {
      f: 1.00099996416e-05
    }
  }
  attr {
    key: "is_training"
    value {
      b: false
    }
  }
}
node {
  name: "v0/resnet_v11/conv5/Relu"
  op: "Relu"
  input: "v0/resnet_v11/conv5/batchnorm5/FusedBatchNorm"
  attr {
    key: "T"
    value {
      type: DT_FLOAT
    }
  }
}
node {
  name: "v0/resnet_v11/conv6/conv2d/kernel"
  op: "VariableV2"
  attr {
    key: "_class"
    value {
      list {
        s: "loc:@v0/resnet_v11/conv6/conv2d/kernel"
      }
    }
  }
  attr {
    key: "container"
    value {
      s: ""
    }
  }
  attr {
    key: "dtype"
    value {
      type: DT_FLOAT
    }
  }
  attr {
    key: "shape"
    value {
      shape {
        dim {
          size: 3
        }
        dim {
          size: 3
        }
        dim {
          size: 64
        }
        dim {
          size: 64
        }
      }
    }
  }
  attr {
    key: "shared_name"
    value {
      s: ""
    }
  }
}
node {
  name: "v0/resnet_v11/conv6/conv2d/kernel/read"
  op: "Identity"
  input: "v0/resnet_v11/conv6/conv2d/kernel"
  attr {
    key: "T"
    value {
      type: DT_FLOAT
    }
  }
  attr {
    key: "_class"
    value {
      list {
        s: "loc:@v0/resnet_v11/conv6/conv2d/kernel"
      }
    }
  }
}
node {
  name: "v0/resnet_v11/conv6/conv2d/Conv2D"
  op: "Conv2D"
  input: "v0/resnet_v11/conv5/Relu"
  input: "v0/resnet_v11/conv6/conv2d/kernel/read"
  attr {
    key: "T"
    value {
      type: DT_FLOAT
    }
  }
  attr {
    key: "data_format"
    value {
      s: "NHWC"
    }
  }
  attr {
    key: "dilations"
    value {
      list {
        i: 1
        i: 1
        i: 1
        i: 1
      }
    }
  }
  attr {
    key: "padding"
    value {
      s: "SAME"
    }
  }
  attr {
    key: "strides"
    value {
      list {
        i: 1
        i: 1
        i: 1
        i: 1
      }
    }
  }
  attr {
    key: "use_cudnn_on_gpu"
    value {
      b: true
    }
  }
}
node {
  name: "v0/resnet_v11/conv6/batchnorm6/gamma"
  op: "VariableV2"
  attr {
    key: "_class"
    value {
      list {
        s: "loc:@v0/resnet_v11/conv6/batchnorm6/gamma"
      }
    }
  }
  attr {
    key: "container"
    value {
      s: ""
    }
  }
  attr {
    key: "dtype"
    value {
      type: DT_FLOAT
    }
  }
  attr {
    key: "shape"
    value {
      shape {
        dim {
          size: 64
        }
      }
    }
  }
  attr {
    key: "shared_name"
    value {
      s: ""
    }
  }
}
node {
  name: "v0/resnet_v11/conv6/batchnorm6/gamma/read"
  op: "Identity"
  input: "v0/resnet_v11/conv6/batchnorm6/gamma"
  attr {
    key: "T"
    value {
      type: DT_FLOAT
    }
  }
  attr {
    key: "_class"
    value {
      list {
        s: "loc:@v0/resnet_v11/conv6/batchnorm6/gamma"
      }
    }
  }
}
node {
  name: "v0/resnet_v11/conv6/batchnorm6/beta"
  op: "VariableV2"
  attr {
    key: "_class"
    value {
      list {
        s: "loc:@v0/resnet_v11/conv6/batchnorm6/beta"
      }
    }
  }
  attr {
    key: "container"
    value {
      s: ""
    }
  }
  attr {
    key: "dtype"
    value {
      type: DT_FLOAT
    }
  }
  attr {
    key: "shape"
    value {
      shape {
        dim {
          size: 64
        }
      }
    }
  }
  attr {
    key: "shared_name"
    value {
      s: ""
    }
  }
}
node {
  name: "v0/resnet_v11/conv6/batchnorm6/beta/read"
  op: "Identity"
  input: "v0/resnet_v11/conv6/batchnorm6/beta"
  attr {
    key: "T"
    value {
      type: DT_FLOAT
    }
  }
  attr {
    key: "_class"
    value {
      list {
        s: "loc:@v0/resnet_v11/conv6/batchnorm6/beta"
      }
    }
  }
}
node {
  name: "v0/resnet_v11/conv6/batchnorm6/moving_mean"
  op: "VariableV2"
  attr {
    key: "_class"
    value {
      list {
        s: "loc:@v0/resnet_v11/conv6/batchnorm6/moving_mean"
      }
    }
  }
  attr {
    key: "container"
    value {
      s: ""
    }
  }
  attr {
    key: "dtype"
    value {
      type: DT_FLOAT
    }
  }
  attr {
    key: "shape"
    value {
      shape {
        dim {
          size: 64
        }
      }
    }
  }
  attr {
    key: "shared_name"
    value {
      s: ""
    }
  }
}
node {
  name: "v0/resnet_v11/conv6/batchnorm6/moving_mean/read"
  op: "Identity"
  input: "v0/resnet_v11/conv6/batchnorm6/moving_mean"
  attr {
    key: "T"
    value {
      type: DT_FLOAT
    }
  }
  attr {
    key: "_class"
    value {
      list {
        s: "loc:@v0/resnet_v11/conv6/batchnorm6/moving_mean"
      }
    }
  }
}
node {
  name: "v0/resnet_v11/conv6/batchnorm6/moving_variance"
  op: "VariableV2"
  attr {
    key: "_class"
    value {
      list {
        s: "loc:@v0/resnet_v11/conv6/batchnorm6/moving_variance"
      }
    }
  }
  attr {
    key: "container"
    value {
      s: ""
    }
  }
  attr {
    key: "dtype"
    value {
      type: DT_FLOAT
    }
  }
  attr {
    key: "shape"
    value {
      shape {
        dim {
          size: 64
        }
      }
    }
  }
  attr {
    key: "shared_name"
    value {
      s: ""
    }
  }
}
node {
  name: "v0/resnet_v11/conv6/batchnorm6/moving_variance/read"
  op: "Identity"
  input: "v0/resnet_v11/conv6/batchnorm6/moving_variance"
  attr {
    key: "T"
    value {
      type: DT_FLOAT
    }
  }
  attr {
    key: "_class"
    value {
      list {
        s: "loc:@v0/resnet_v11/conv6/batchnorm6/moving_variance"
      }
    }
  }
}
node {
  name: "v0/resnet_v11/conv6/batchnorm6/FusedBatchNorm"
  op: "FusedBatchNorm"
  input: "v0/resnet_v11/conv6/conv2d/Conv2D"
  input: "v0/resnet_v11/conv6/batchnorm6/gamma/read"
  input: "v0/resnet_v11/conv6/batchnorm6/beta/read"
  input: "v0/resnet_v11/conv6/batchnorm6/moving_mean/read"
  input: "v0/resnet_v11/conv6/batchnorm6/moving_variance/read"
  attr {
    key: "T"
    value {
      type: DT_FLOAT
    }
  }
  attr {
    key: "data_format"
    value {
      s: "NHWC"
    }
  }
  attr {
    key: "epsilon"
    value {
      f: 1.00099996416e-05
    }
  }
  attr {
    key: "is_training"
    value {
      b: false
    }
  }
}
node {
  name: "v0/resnet_v11/conv6/Relu"
  op: "Relu"
  input: "v0/resnet_v11/conv6/batchnorm6/FusedBatchNorm"
  attr {
    key: "T"
    value {
      type: DT_FLOAT
    }
  }
}
node {
  name: "v0/resnet_v11/conv7/conv2d/kernel"
  op: "VariableV2"
  attr {
    key: "_class"
    value {
      list {
        s: "loc:@v0/resnet_v11/conv7/conv2d/kernel"
      }
    }
  }
  attr {
    key: "container"
    value {
      s: ""
    }
  }
  attr {
    key: "dtype"
    value {
      type: DT_FLOAT
    }
  }
  attr {
    key: "shape"
    value {
      shape {
        dim {
          size: 1
        }
        dim {
          size: 1
        }
        dim {
          size: 64
        }
        dim {
          size: 256
        }
      }
    }
  }
  attr {
    key: "shared_name"
    value {
      s: ""
    }
  }
}
node {
  name: "v0/resnet_v11/conv7/conv2d/kernel/read"
  op: "Identity"
  input: "v0/resnet_v11/conv7/conv2d/kernel"
  attr {
    key: "T"
    value {
      type: DT_FLOAT
    }
  }
  attr {
    key: "_class"
    value {
      list {
        s: "loc:@v0/resnet_v11/conv7/conv2d/kernel"
      }
    }
  }
}
node {
  name: "v0/resnet_v11/conv7/conv2d/Conv2D"
  op: "Conv2D"
  input: "v0/resnet_v11/conv6/Relu"
  input: "v0/resnet_v11/conv7/conv2d/kernel/read"
  attr {
    key: "T"
    value {
      type: DT_FLOAT
    }
  }
  attr {
    key: "data_format"
    value {
      s: "NHWC"
    }
  }
  attr {
    key: "dilations"
    value {
      list {
        i: 1
        i: 1
        i: 1
        i: 1
      }
    }
  }
  attr {
    key: "padding"
    value {
      s: "SAME"
    }
  }
  attr {
    key: "strides"
    value {
      list {
        i: 1
        i: 1
        i: 1
        i: 1
      }
    }
  }
  attr {
    key: "use_cudnn_on_gpu"
    value {
      b: true
    }
  }
}
node {
  name: "v0/resnet_v11/conv7/batchnorm7/gamma"
  op: "VariableV2"
  attr {
    key: "_class"
    value {
      list {
        s: "loc:@v0/resnet_v11/conv7/batchnorm7/gamma"
      }
    }
  }
  attr {
    key: "container"
    value {
      s: ""
    }
  }
  attr {
    key: "dtype"
    value {
      type: DT_FLOAT
    }
  }
  attr {
    key: "shape"
    value {
      shape {
        dim {
          size: 256
        }
      }
    }
  }
  attr {
    key: "shared_name"
    value {
      s: ""
    }
  }
}
node {
  name: "v0/resnet_v11/conv7/batchnorm7/gamma/read"
  op: "Identity"
  input: "v0/resnet_v11/conv7/batchnorm7/gamma"
  attr {
    key: "T"
    value {
      type: DT_FLOAT
    }
  }
  attr {
    key: "_class"
    value {
      list {
        s: "loc:@v0/resnet_v11/conv7/batchnorm7/gamma"
      }
    }
  }
}
node {
  name: "v0/resnet_v11/conv7/batchnorm7/beta"
  op: "VariableV2"
  attr {
    key: "_class"
    value {
      list {
        s: "loc:@v0/resnet_v11/conv7/batchnorm7/beta"
      }
    }
  }
  attr {
    key: "container"
    value {
      s: ""
    }
  }
  attr {
    key: "dtype"
    value {
      type: DT_FLOAT
    }
  }
  attr {
    key: "shape"
    value {
      shape {
        dim {
          size: 256
        }
      }
    }
  }
  attr {
    key: "shared_name"
    value {
      s: ""
    }
  }
}
node {
  name: "v0/resnet_v11/conv7/batchnorm7/beta/read"
  op: "Identity"
  input: "v0/resnet_v11/conv7/batchnorm7/beta"
  attr {
    key: "T"
    value {
      type: DT_FLOAT
    }
  }
  attr {
    key: "_class"
    value {
      list {
        s: "loc:@v0/resnet_v11/conv7/batchnorm7/beta"
      }
    }
  }
}
node {
  name: "v0/resnet_v11/conv7/batchnorm7/moving_mean"
  op: "VariableV2"
  attr {
    key: "_class"
    value {
      list {
        s: "loc:@v0/resnet_v11/conv7/batchnorm7/moving_mean"
      }
    }
  }
  attr {
    key: "container"
    value {
      s: ""
    }
  }
  attr {
    key: "dtype"
    value {
      type: DT_FLOAT
    }
  }
  attr {
    key: "shape"
    value {
      shape {
        dim {
          size: 256
        }
      }
    }
  }
  attr {
    key: "shared_name"
    value {
      s: ""
    }
  }
}
node {
  name: "v0/resnet_v11/conv7/batchnorm7/moving_mean/read"
  op: "Identity"
  input: "v0/resnet_v11/conv7/batchnorm7/moving_mean"
  attr {
    key: "T"
    value {
      type: DT_FLOAT
    }
  }
  attr {
    key: "_class"
    value {
      list {
        s: "loc:@v0/resnet_v11/conv7/batchnorm7/moving_mean"
      }
    }
  }
}
node {
  name: "v0/resnet_v11/conv7/batchnorm7/moving_variance"
  op: "VariableV2"
  attr {
    key: "_class"
    value {
      list {
        s: "loc:@v0/resnet_v11/conv7/batchnorm7/moving_variance"
      }
    }
  }
  attr {
    key: "container"
    value {
      s: ""
    }
  }
  attr {
    key: "dtype"
    value {
      type: DT_FLOAT
    }
  }
  attr {
    key: "shape"
    value {
      shape {
        dim {
          size: 256
        }
      }
    }
  }
  attr {
    key: "shared_name"
    value {
      s: ""
    }
  }
}
node {
  name: "v0/resnet_v11/conv7/batchnorm7/moving_variance/read"
  op: "Identity"
  input: "v0/resnet_v11/conv7/batchnorm7/moving_variance"
  attr {
    key: "T"
    value {
      type: DT_FLOAT
    }
  }
  attr {
    key: "_class"
    value {
      list {
        s: "loc:@v0/resnet_v11/conv7/batchnorm7/moving_variance"
      }
    }
  }
}
node {
  name: "v0/resnet_v11/conv7/batchnorm7/FusedBatchNorm"
  op: "FusedBatchNorm"
  input: "v0/resnet_v11/conv7/conv2d/Conv2D"
  input: "v0/resnet_v11/conv7/batchnorm7/gamma/read"
  input: "v0/resnet_v11/conv7/batchnorm7/beta/read"
  input: "v0/resnet_v11/conv7/batchnorm7/moving_mean/read"
  input: "v0/resnet_v11/conv7/batchnorm7/moving_variance/read"
  attr {
    key: "T"
    value {
      type: DT_FLOAT
    }
  }
  attr {
    key: "data_format"
    value {
      s: "NHWC"
    }
  }
  attr {
    key: "epsilon"
    value {
      f: 1.00099996416e-05
    }
  }
  attr {
    key: "is_training"
    value {
      b: false
    }
  }
}
node {
  name: "v0/resnet_v11/AddN"
  op: "AddN"
  input: "v0/resnet_v10/Relu"
  input: "v0/resnet_v11/conv7/batchnorm7/FusedBatchNorm"
  attr {
    key: "N"
    value {
      i: 2
    }
  }
  attr {
    key: "T"
    value {
      type: DT_FLOAT
    }
  }
}
node {
  name: "v0/resnet_v11/Relu"
  op: "Relu"
  input: "v0/resnet_v11/AddN"
  attr {
    key: "T"
    value {
      type: DT_FLOAT
    }
  }
}
node {
  name: "v0/resnet_v12/conv8/conv2d/kernel"
  op: "VariableV2"
  attr {
    key: "_class"
    value {
      list {
        s: "loc:@v0/resnet_v12/conv8/conv2d/kernel"
      }
    }
  }
  attr {
    key: "container"
    value {
      s: ""
    }
  }
  attr {
    key: "dtype"
    value {
      type: DT_FLOAT
    }
  }
  attr {
    key: "shape"
    value {
      shape {
        dim {
          size: 1
        }
        dim {
          size: 1
        }
        dim {
          size: 256
        }
        dim {
          size: 64
        }
      }
    }
  }
  attr {
    key: "shared_name"
    value {
      s: ""
    }
  }
}
node {
  name: "v0/resnet_v12/conv8/conv2d/kernel/read"
  op: "Identity"
  input: "v0/resnet_v12/conv8/conv2d/kernel"
  attr {
    key: "T"
    value {
      type: DT_FLOAT
    }
  }
  attr {
    key: "_class"
    value {
      list {
        s: "loc:@v0/resnet_v12/conv8/conv2d/kernel"
      }
    }
  }
}
node {
  name: "v0/resnet_v12/conv8/conv2d/Conv2D"
  op: "Conv2D"
  input: "v0/resnet_v11/Relu"
  input: "v0/resnet_v12/conv8/conv2d/kernel/read"
  attr {
    key: "T"
    value {
      type: DT_FLOAT
    }
  }
  attr {
    key: "data_format"
    value {
      s: "NHWC"
    }
  }
  attr {
    key: "dilations"
    value {
      list {
        i: 1
        i: 1
        i: 1
        i: 1
      }
    }
  }
  attr {
    key: "padding"
    value {
      s: "SAME"
    }
  }
  attr {
    key: "strides"
    value {
      list {
        i: 1
        i: 1
        i: 1
        i: 1
      }
    }
  }
  attr {
    key: "use_cudnn_on_gpu"
    value {
      b: true
    }
  }
}
node {
  name: "v0/resnet_v12/conv8/batchnorm8/gamma"
  op: "VariableV2"
  attr {
    key: "_class"
    value {
      list {
        s: "loc:@v0/resnet_v12/conv8/batchnorm8/gamma"
      }
    }
  }
  attr {
    key: "container"
    value {
      s: ""
    }
  }
  attr {
    key: "dtype"
    value {
      type: DT_FLOAT
    }
  }
  attr {
    key: "shape"
    value {
      shape {
        dim {
          size: 64
        }
      }
    }
  }
  attr {
    key: "shared_name"
    value {
      s: ""
    }
  }
}
node {
  name: "v0/resnet_v12/conv8/batchnorm8/gamma/read"
  op: "Identity"
  input: "v0/resnet_v12/conv8/batchnorm8/gamma"
  attr {
    key: "T"
    value {
      type: DT_FLOAT
    }
  }
  attr {
    key: "_class"
    value {
      list {
        s: "loc:@v0/resnet_v12/conv8/batchnorm8/gamma"
      }
    }
  }
}
node {
  name: "v0/resnet_v12/conv8/batchnorm8/beta"
  op: "VariableV2"
  attr {
    key: "_class"
    value {
      list {
        s: "loc:@v0/resnet_v12/conv8/batchnorm8/beta"
      }
    }
  }
  attr {
    key: "container"
    value {
      s: ""
    }
  }
  attr {
    key: "dtype"
    value {
      type: DT_FLOAT
    }
  }
  attr {
    key: "shape"
    value {
      shape {
        dim {
          size: 64
        }
      }
    }
  }
  attr {
    key: "shared_name"
    value {
      s: ""
    }
  }
}
node {
  name: "v0/resnet_v12/conv8/batchnorm8/beta/read"
  op: "Identity"
  input: "v0/resnet_v12/conv8/batchnorm8/beta"
  attr {
    key: "T"
    value {
      type: DT_FLOAT
    }
  }
  attr {
    key: "_class"
    value {
      list {
        s: "loc:@v0/resnet_v12/conv8/batchnorm8/beta"
      }
    }
  }
}
node {
  name: "v0/resnet_v12/conv8/batchnorm8/moving_mean"
  op: "VariableV2"
  attr {
    key: "_class"
    value {
      list {
        s: "loc:@v0/resnet_v12/conv8/batchnorm8/moving_mean"
      }
    }
  }
  attr {
    key: "container"
    value {
      s: ""
    }
  }
  attr {
    key: "dtype"
    value {
      type: DT_FLOAT
    }
  }
  attr {
    key: "shape"
    value {
      shape {
        dim {
          size: 64
        }
      }
    }
  }
  attr {
    key: "shared_name"
    value {
      s: ""
    }
  }
}
node {
  name: "v0/resnet_v12/conv8/batchnorm8/moving_mean/read"
  op: "Identity"
  input: "v0/resnet_v12/conv8/batchnorm8/moving_mean"
  attr {
    key: "T"
    value {
      type: DT_FLOAT
    }
  }
  attr {
    key: "_class"
    value {
      list {
        s: "loc:@v0/resnet_v12/conv8/batchnorm8/moving_mean"
      }
    }
  }
}
node {
  name: "v0/resnet_v12/conv8/batchnorm8/moving_variance"
  op: "VariableV2"
  attr {
    key: "_class"
    value {
      list {
        s: "loc:@v0/resnet_v12/conv8/batchnorm8/moving_variance"
      }
    }
  }
  attr {
    key: "container"
    value {
      s: ""
    }
  }
  attr {
    key: "dtype"
    value {
      type: DT_FLOAT
    }
  }
  attr {
    key: "shape"
    value {
      shape {
        dim {
          size: 64
        }
      }
    }
  }
  attr {
    key: "shared_name"
    value {
      s: ""
    }
  }
}
node {
  name: "v0/resnet_v12/conv8/batchnorm8/moving_variance/read"
  op: "Identity"
  input: "v0/resnet_v12/conv8/batchnorm8/moving_variance"
  attr {
    key: "T"
    value {
      type: DT_FLOAT
    }
  }
  attr {
    key: "_class"
    value {
      list {
        s: "loc:@v0/resnet_v12/conv8/batchnorm8/moving_variance"
      }
    }
  }
}
node {
  name: "v0/resnet_v12/conv8/batchnorm8/FusedBatchNorm"
  op: "FusedBatchNorm"
  input: "v0/resnet_v12/conv8/conv2d/Conv2D"
  input: "v0/resnet_v12/conv8/batchnorm8/gamma/read"
  input: "v0/resnet_v12/conv8/batchnorm8/beta/read"
  input: "v0/resnet_v12/conv8/batchnorm8/moving_mean/read"
  input: "v0/resnet_v12/conv8/batchnorm8/moving_variance/read"
  attr {
    key: "T"
    value {
      type: DT_FLOAT
    }
  }
  attr {
    key: "data_format"
    value {
      s: "NHWC"
    }
  }
  attr {
    key: "epsilon"
    value {
      f: 1.00099996416e-05
    }
  }
  attr {
    key: "is_training"
    value {
      b: false
    }
  }
}
node {
  name: "v0/resnet_v12/conv8/Relu"
  op: "Relu"
  input: "v0/resnet_v12/conv8/batchnorm8/FusedBatchNorm"
  attr {
    key: "T"
    value {
      type: DT_FLOAT
    }
  }
}
node {
  name: "v0/resnet_v12/conv9/conv2d/kernel"
  op: "VariableV2"
  attr {
    key: "_class"
    value {
      list {
        s: "loc:@v0/resnet_v12/conv9/conv2d/kernel"
      }
    }
  }
  attr {
    key: "container"
    value {
      s: ""
    }
  }
  attr {
    key: "dtype"
    value {
      type: DT_FLOAT
    }
  }
  attr {
    key: "shape"
    value {
      shape {
        dim {
          size: 3
        }
        dim {
          size: 3
        }
        dim {
          size: 64
        }
        dim {
          size: 64
        }
      }
    }
  }
  attr {
    key: "shared_name"
    value {
      s: ""
    }
  }
}
node {
  name: "v0/resnet_v12/conv9/conv2d/kernel/read"
  op: "Identity"
  input: "v0/resnet_v12/conv9/conv2d/kernel"
  attr {
    key: "T"
    value {
      type: DT_FLOAT
    }
  }
  attr {
    key: "_class"
    value {
      list {
        s: "loc:@v0/resnet_v12/conv9/conv2d/kernel"
      }
    }
  }
}
node {
  name: "v0/resnet_v12/conv9/conv2d/Conv2D"
  op: "Conv2D"
  input: "v0/resnet_v12/conv8/Relu"
  input: "v0/resnet_v12/conv9/conv2d/kernel/read"
  attr {
    key: "T"
    value {
      type: DT_FLOAT
    }
  }
  attr {
    key: "data_format"
    value {
      s: "NHWC"
    }
  }
  attr {
    key: "dilations"
    value {
      list {
        i: 1
        i: 1
        i: 1
        i: 1
      }
    }
  }
  attr {
    key: "padding"
    value {
      s: "SAME"
    }
  }
  attr {
    key: "strides"
    value {
      list {
        i: 1
        i: 1
        i: 1
        i: 1
      }
    }
  }
  attr {
    key: "use_cudnn_on_gpu"
    value {
      b: true
    }
  }
}
node {
  name: "v0/resnet_v12/conv9/batchnorm9/gamma"
  op: "VariableV2"
  attr {
    key: "_class"
    value {
      list {
        s: "loc:@v0/resnet_v12/conv9/batchnorm9/gamma"
      }
    }
  }
  attr {
    key: "container"
    value {
      s: ""
    }
  }
  attr {
    key: "dtype"
    value {
      type: DT_FLOAT
    }
  }
  attr {
    key: "shape"
    value {
      shape {
        dim {
          size: 64
        }
      }
    }
  }
  attr {
    key: "shared_name"
    value {
      s: ""
    }
  }
}
node {
  name: "v0/resnet_v12/conv9/batchnorm9/gamma/read"
  op: "Identity"
  input: "v0/resnet_v12/conv9/batchnorm9/gamma"
  attr {
    key: "T"
    value {
      type: DT_FLOAT
    }
  }
  attr {
    key: "_class"
    value {
      list {
        s: "loc:@v0/resnet_v12/conv9/batchnorm9/gamma"
      }
    }
  }
}
node {
  name: "v0/resnet_v12/conv9/batchnorm9/beta"
  op: "VariableV2"
  attr {
    key: "_class"
    value {
      list {
        s: "loc:@v0/resnet_v12/conv9/batchnorm9/beta"
      }
    }
  }
  attr {
    key: "container"
    value {
      s: ""
    }
  }
  attr {
    key: "dtype"
    value {
      type: DT_FLOAT
    }
  }
  attr {
    key: "shape"
    value {
      shape {
        dim {
          size: 64
        }
      }
    }
  }
  attr {
    key: "shared_name"
    value {
      s: ""
    }
  }
}
node {
  name: "v0/resnet_v12/conv9/batchnorm9/beta/read"
  op: "Identity"
  input: "v0/resnet_v12/conv9/batchnorm9/beta"
  attr {
    key: "T"
    value {
      type: DT_FLOAT
    }
  }
  attr {
    key: "_class"
    value {
      list {
        s: "loc:@v0/resnet_v12/conv9/batchnorm9/beta"
      }
    }
  }
}
node {
  name: "v0/resnet_v12/conv9/batchnorm9/moving_mean"
  op: "VariableV2"
  attr {
    key: "_class"
    value {
      list {
        s: "loc:@v0/resnet_v12/conv9/batchnorm9/moving_mean"
      }
    }
  }
  attr {
    key: "container"
    value {
      s: ""
    }
  }
  attr {
    key: "dtype"
    value {
      type: DT_FLOAT
    }
  }
  attr {
    key: "shape"
    value {
      shape {
        dim {
          size: 64
        }
      }
    }
  }
  attr {
    key: "shared_name"
    value {
      s: ""
    }
  }
}
node {
  name: "v0/resnet_v12/conv9/batchnorm9/moving_mean/read"
  op: "Identity"
  input: "v0/resnet_v12/conv9/batchnorm9/moving_mean"
  attr {
    key: "T"
    value {
      type: DT_FLOAT
    }
  }
  attr {
    key: "_class"
    value {
      list {
        s: "loc:@v0/resnet_v12/conv9/batchnorm9/moving_mean"
      }
    }
  }
}
node {
  name: "v0/resnet_v12/conv9/batchnorm9/moving_variance"
  op: "VariableV2"
  attr {
    key: "_class"
    value {
      list {
        s: "loc:@v0/resnet_v12/conv9/batchnorm9/moving_variance"
      }
    }
  }
  attr {
    key: "container"
    value {
      s: ""
    }
  }
  attr {
    key: "dtype"
    value {
      type: DT_FLOAT
    }
  }
  attr {
    key: "shape"
    value {
      shape {
        dim {
          size: 64
        }
      }
    }
  }
  attr {
    key: "shared_name"
    value {
      s: ""
    }
  }
}
node {
  name: "v0/resnet_v12/conv9/batchnorm9/moving_variance/read"
  op: "Identity"
  input: "v0/resnet_v12/conv9/batchnorm9/moving_variance"
  attr {
    key: "T"
    value {
      type: DT_FLOAT
    }
  }
  attr {
    key: "_class"
    value {
      list {
        s: "loc:@v0/resnet_v12/conv9/batchnorm9/moving_variance"
      }
    }
  }
}
node {
  name: "v0/resnet_v12/conv9/batchnorm9/FusedBatchNorm"
  op: "FusedBatchNorm"
  input: "v0/resnet_v12/conv9/conv2d/Conv2D"
  input: "v0/resnet_v12/conv9/batchnorm9/gamma/read"
  input: "v0/resnet_v12/conv9/batchnorm9/beta/read"
  input: "v0/resnet_v12/conv9/batchnorm9/moving_mean/read"
  input: "v0/resnet_v12/conv9/batchnorm9/moving_variance/read"
  attr {
    key: "T"
    value {
      type: DT_FLOAT
    }
  }
  attr {
    key: "data_format"
    value {
      s: "NHWC"
    }
  }
  attr {
    key: "epsilon"
    value {
      f: 1.00099996416e-05
    }
  }
  attr {
    key: "is_training"
    value {
      b: false
    }
  }
}
node {
  name: "v0/resnet_v12/conv9/Relu"
  op: "Relu"
  input: "v0/resnet_v12/conv9/batchnorm9/FusedBatchNorm"
  attr {
    key: "T"
    value {
      type: DT_FLOAT
    }
  }
}
node {
  name: "v0/resnet_v12/conv10/conv2d/kernel"
  op: "VariableV2"
  attr {
    key: "_class"
    value {
      list {
        s: "loc:@v0/resnet_v12/conv10/conv2d/kernel"
      }
    }
  }
  attr {
    key: "container"
    value {
      s: ""
    }
  }
  attr {
    key: "dtype"
    value {
      type: DT_FLOAT
    }
  }
  attr {
    key: "shape"
    value {
      shape {
        dim {
          size: 1
        }
        dim {
          size: 1
        }
        dim {
          size: 64
        }
        dim {
          size: 256
        }
      }
    }
  }
  attr {
    key: "shared_name"
    value {
      s: ""
    }
  }
}
node {
  name: "v0/resnet_v12/conv10/conv2d/kernel/read"
  op: "Identity"
  input: "v0/resnet_v12/conv10/conv2d/kernel"
  attr {
    key: "T"
    value {
      type: DT_FLOAT
    }
  }
  attr {
    key: "_class"
    value {
      list {
        s: "loc:@v0/resnet_v12/conv10/conv2d/kernel"
      }
    }
  }
}
node {
  name: "v0/resnet_v12/conv10/conv2d/Conv2D"
  op: "Conv2D"
  input: "v0/resnet_v12/conv9/Relu"
  input: "v0/resnet_v12/conv10/conv2d/kernel/read"
  attr {
    key: "T"
    value {
      type: DT_FLOAT
    }
  }
  attr {
    key: "data_format"
    value {
      s: "NHWC"
    }
  }
  attr {
    key: "dilations"
    value {
      list {
        i: 1
        i: 1
        i: 1
        i: 1
      }
    }
  }
  attr {
    key: "padding"
    value {
      s: "SAME"
    }
  }
  attr {
    key: "strides"
    value {
      list {
        i: 1
        i: 1
        i: 1
        i: 1
      }
    }
  }
  attr {
    key: "use_cudnn_on_gpu"
    value {
      b: true
    }
  }
}
node {
  name: "v0/resnet_v12/conv10/batchnorm10/gamma"
  op: "VariableV2"
  attr {
    key: "_class"
    value {
      list {
        s: "loc:@v0/resnet_v12/conv10/batchnorm10/gamma"
      }
    }
  }
  attr {
    key: "container"
    value {
      s: ""
    }
  }
  attr {
    key: "dtype"
    value {
      type: DT_FLOAT
    }
  }
  attr {
    key: "shape"
    value {
      shape {
        dim {
          size: 256
        }
      }
    }
  }
  attr {
    key: "shared_name"
    value {
      s: ""
    }
  }
}
node {
  name: "v0/resnet_v12/conv10/batchnorm10/gamma/read"
  op: "Identity"
  input: "v0/resnet_v12/conv10/batchnorm10/gamma"
  attr {
    key: "T"
    value {
      type: DT_FLOAT
    }
  }
  attr {
    key: "_class"
    value {
      list {
        s: "loc:@v0/resnet_v12/conv10/batchnorm10/gamma"
      }
    }
  }
}
node {
  name: "v0/resnet_v12/conv10/batchnorm10/beta"
  op: "VariableV2"
  attr {
    key: "_class"
    value {
      list {
        s: "loc:@v0/resnet_v12/conv10/batchnorm10/beta"
      }
    }
  }
  attr {
    key: "container"
    value {
      s: ""
    }
  }
  attr {
    key: "dtype"
    value {
      type: DT_FLOAT
    }
  }
  attr {
    key: "shape"
    value {
      shape {
        dim {
          size: 256
        }
      }
    }
  }
  attr {
    key: "shared_name"
    value {
      s: ""
    }
  }
}
node {
  name: "v0/resnet_v12/conv10/batchnorm10/beta/read"
  op: "Identity"
  input: "v0/resnet_v12/conv10/batchnorm10/beta"
  attr {
    key: "T"
    value {
      type: DT_FLOAT
    }
  }
  attr {
    key: "_class"
    value {
      list {
        s: "loc:@v0/resnet_v12/conv10/batchnorm10/beta"
      }
    }
  }
}
node {
  name: "v0/resnet_v12/conv10/batchnorm10/moving_mean"
  op: "VariableV2"
  attr {
    key: "_class"
    value {
      list {
        s: "loc:@v0/resnet_v12/conv10/batchnorm10/moving_mean"
      }
    }
  }
  attr {
    key: "container"
    value {
      s: ""
    }
  }
  attr {
    key: "dtype"
    value {
      type: DT_FLOAT
    }
  }
  attr {
    key: "shape"
    value {
      shape {
        dim {
          size: 256
        }
      }
    }
  }
  attr {
    key: "shared_name"
    value {
      s: ""
    }
  }
}
node {
  name: "v0/resnet_v12/conv10/batchnorm10/moving_mean/read"
  op: "Identity"
  input: "v0/resnet_v12/conv10/batchnorm10/moving_mean"
  attr {
    key: "T"
    value {
      type: DT_FLOAT
    }
  }
  attr {
    key: "_class"
    value {
      list {
        s: "loc:@v0/resnet_v12/conv10/batchnorm10/moving_mean"
      }
    }
  }
}
node {
  name: "v0/resnet_v12/conv10/batchnorm10/moving_variance"
  op: "VariableV2"
  attr {
    key: "_class"
    value {
      list {
        s: "loc:@v0/resnet_v12/conv10/batchnorm10/moving_variance"
      }
    }
  }
  attr {
    key: "container"
    value {
      s: ""
    }
  }
  attr {
    key: "dtype"
    value {
      type: DT_FLOAT
    }
  }
  attr {
    key: "shape"
    value {
      shape {
        dim {
          size: 256
        }
      }
    }
  }
  attr {
    key: "shared_name"
    value {
      s: ""
    }
  }
}
node {
  name: "v0/resnet_v12/conv10/batchnorm10/moving_variance/read"
  op: "Identity"
  input: "v0/resnet_v12/conv10/batchnorm10/moving_variance"
  attr {
    key: "T"
    value {
      type: DT_FLOAT
    }
  }
  attr {
    key: "_class"
    value {
      list {
        s: "loc:@v0/resnet_v12/conv10/batchnorm10/moving_variance"
      }
    }
  }
}
node {
  name: "v0/resnet_v12/conv10/batchnorm10/FusedBatchNorm"
  op: "FusedBatchNorm"
  input: "v0/resnet_v12/conv10/conv2d/Conv2D"
  input: "v0/resnet_v12/conv10/batchnorm10/gamma/read"
  input: "v0/resnet_v12/conv10/batchnorm10/beta/read"
  input: "v0/resnet_v12/conv10/batchnorm10/moving_mean/read"
  input: "v0/resnet_v12/conv10/batchnorm10/moving_variance/read"
  attr {
    key: "T"
    value {
      type: DT_FLOAT
    }
  }
  attr {
    key: "data_format"
    value {
      s: "NHWC"
    }
  }
  attr {
    key: "epsilon"
    value {
      f: 1.00099996416e-05
    }
  }
  attr {
    key: "is_training"
    value {
      b: false
    }
  }
}
node {
  name: "v0/resnet_v12/AddN"
  op: "AddN"
  input: "v0/resnet_v11/Relu"
  input: "v0/resnet_v12/conv10/batchnorm10/FusedBatchNorm"
  attr {
    key: "N"
    value {
      i: 2
    }
  }
  attr {
    key: "T"
    value {
      type: DT_FLOAT
    }
  }
}
node {
  name: "v0/resnet_v12/Relu"
  op: "Relu"
  input: "v0/resnet_v12/AddN"
  attr {
    key: "T"
    value {
      type: DT_FLOAT
    }
  }
}
node {
  name: "v0/resnet_v13/conv11/conv2d/kernel"
  op: "VariableV2"
  attr {
    key: "_class"
    value {
      list {
        s: "loc:@v0/resnet_v13/conv11/conv2d/kernel"
      }
    }
  }
  attr {
    key: "container"
    value {
      s: ""
    }
  }
  attr {
    key: "dtype"
    value {
      type: DT_FLOAT
    }
  }
  attr {
    key: "shape"
    value {
      shape {
        dim {
          size: 1
        }
        dim {
          size: 1
        }
        dim {
          size: 256
        }
        dim {
          size: 512
        }
      }
    }
  }
  attr {
    key: "shared_name"
    value {
      s: ""
    }
  }
}
node {
  name: "v0/resnet_v13/conv11/conv2d/kernel/read"
  op: "Identity"
  input: "v0/resnet_v13/conv11/conv2d/kernel"
  attr {
    key: "T"
    value {
      type: DT_FLOAT
    }
  }
  attr {
    key: "_class"
    value {
      list {
        s: "loc:@v0/resnet_v13/conv11/conv2d/kernel"
      }
    }
  }
}
node {
  name: "v0/resnet_v13/conv11/conv2d/Conv2D"
  op: "Conv2D"
  input: "v0/resnet_v12/Relu"
  input: "v0/resnet_v13/conv11/conv2d/kernel/read"
  attr {
    key: "T"
    value {
      type: DT_FLOAT
    }
  }
  attr {
    key: "data_format"
    value {
      s: "NHWC"
    }
  }
  attr {
    key: "dilations"
    value {
      list {
        i: 1
        i: 1
        i: 1
        i: 1
      }
    }
  }
  attr {
    key: "padding"
    value {
      s: "SAME"
    }
  }
  attr {
    key: "strides"
    value {
      list {
        i: 1
        i: 2
        i: 2
        i: 1
      }
    }
  }
  attr {
    key: "use_cudnn_on_gpu"
    value {
      b: true
    }
  }
}
node {
  name: "v0/resnet_v13/conv11/batchnorm11/gamma"
  op: "VariableV2"
  attr {
    key: "_class"
    value {
      list {
        s: "loc:@v0/resnet_v13/conv11/batchnorm11/gamma"
      }
    }
  }
  attr {
    key: "container"
    value {
      s: ""
    }
  }
  attr {
    key: "dtype"
    value {
      type: DT_FLOAT
    }
  }
  attr {
    key: "shape"
    value {
      shape {
        dim {
          size: 512
        }
      }
    }
  }
  attr {
    key: "shared_name"
    value {
      s: ""
    }
  }
}
node {
  name: "v0/resnet_v13/conv11/batchnorm11/gamma/read"
  op: "Identity"
  input: "v0/resnet_v13/conv11/batchnorm11/gamma"
  attr {
    key: "T"
    value {
      type: DT_FLOAT
    }
  }
  attr {
    key: "_class"
    value {
      list {
        s: "loc:@v0/resnet_v13/conv11/batchnorm11/gamma"
      }
    }
  }
}
node {
  name: "v0/resnet_v13/conv11/batchnorm11/beta"
  op: "VariableV2"
  attr {
    key: "_class"
    value {
      list {
        s: "loc:@v0/resnet_v13/conv11/batchnorm11/beta"
      }
    }
  }
  attr {
    key: "container"
    value {
      s: ""
    }
  }
  attr {
    key: "dtype"
    value {
      type: DT_FLOAT
    }
  }
  attr {
    key: "shape"
    value {
      shape {
        dim {
          size: 512
        }
      }
    }
  }
  attr {
    key: "shared_name"
    value {
      s: ""
    }
  }
}
node {
  name: "v0/resnet_v13/conv11/batchnorm11/beta/read"
  op: "Identity"
  input: "v0/resnet_v13/conv11/batchnorm11/beta"
  attr {
    key: "T"
    value {
      type: DT_FLOAT
    }
  }
  attr {
    key: "_class"
    value {
      list {
        s: "loc:@v0/resnet_v13/conv11/batchnorm11/beta"
      }
    }
  }
}
node {
  name: "v0/resnet_v13/conv11/batchnorm11/moving_mean"
  op: "VariableV2"
  attr {
    key: "_class"
    value {
      list {
        s: "loc:@v0/resnet_v13/conv11/batchnorm11/moving_mean"
      }
    }
  }
  attr {
    key: "container"
    value {
      s: ""
    }
  }
  attr {
    key: "dtype"
    value {
      type: DT_FLOAT
    }
  }
  attr {
    key: "shape"
    value {
      shape {
        dim {
          size: 512
        }
      }
    }
  }
  attr {
    key: "shared_name"
    value {
      s: ""
    }
  }
}
node {
  name: "v0/resnet_v13/conv11/batchnorm11/moving_mean/read"
  op: "Identity"
  input: "v0/resnet_v13/conv11/batchnorm11/moving_mean"
  attr {
    key: "T"
    value {
      type: DT_FLOAT
    }
  }
  attr {
    key: "_class"
    value {
      list {
        s: "loc:@v0/resnet_v13/conv11/batchnorm11/moving_mean"
      }
    }
  }
}
node {
  name: "v0/resnet_v13/conv11/batchnorm11/moving_variance"
  op: "VariableV2"
  attr {
    key: "_class"
    value {
      list {
        s: "loc:@v0/resnet_v13/conv11/batchnorm11/moving_variance"
      }
    }
  }
  attr {
    key: "container"
    value {
      s: ""
    }
  }
  attr {
    key: "dtype"
    value {
      type: DT_FLOAT
    }
  }
  attr {
    key: "shape"
    value {
      shape {
        dim {
          size: 512
        }
      }
    }
  }
  attr {
    key: "shared_name"
    value {
      s: ""
    }
  }
}
node {
  name: "v0/resnet_v13/conv11/batchnorm11/moving_variance/read"
  op: "Identity"
  input: "v0/resnet_v13/conv11/batchnorm11/moving_variance"
  attr {
    key: "T"
    value {
      type: DT_FLOAT
    }
  }
  attr {
    key: "_class"
    value {
      list {
        s: "loc:@v0/resnet_v13/conv11/batchnorm11/moving_variance"
      }
    }
  }
}
node {
  name: "v0/resnet_v13/conv11/batchnorm11/FusedBatchNorm"
  op: "FusedBatchNorm"
  input: "v0/resnet_v13/conv11/conv2d/Conv2D"
  input: "v0/resnet_v13/conv11/batchnorm11/gamma/read"
  input: "v0/resnet_v13/conv11/batchnorm11/beta/read"
  input: "v0/resnet_v13/conv11/batchnorm11/moving_mean/read"
  input: "v0/resnet_v13/conv11/batchnorm11/moving_variance/read"
  attr {
    key: "T"
    value {
      type: DT_FLOAT
    }
  }
  attr {
    key: "data_format"
    value {
      s: "NHWC"
    }
  }
  attr {
    key: "epsilon"
    value {
      f: 1.00099996416e-05
    }
  }
  attr {
    key: "is_training"
    value {
      b: false
    }
  }
}
node {
  name: "v0/resnet_v13/conv12/conv2d/kernel"
  op: "VariableV2"
  attr {
    key: "_class"
    value {
      list {
        s: "loc:@v0/resnet_v13/conv12/conv2d/kernel"
      }
    }
  }
  attr {
    key: "container"
    value {
      s: ""
    }
  }
  attr {
    key: "dtype"
    value {
      type: DT_FLOAT
    }
  }
  attr {
    key: "shape"
    value {
      shape {
        dim {
          size: 1
        }
        dim {
          size: 1
        }
        dim {
          size: 256
        }
        dim {
          size: 128
        }
      }
    }
  }
  attr {
    key: "shared_name"
    value {
      s: ""
    }
  }
}
node {
  name: "v0/resnet_v13/conv12/conv2d/kernel/read"
  op: "Identity"
  input: "v0/resnet_v13/conv12/conv2d/kernel"
  attr {
    key: "T"
    value {
      type: DT_FLOAT
    }
  }
  attr {
    key: "_class"
    value {
      list {
        s: "loc:@v0/resnet_v13/conv12/conv2d/kernel"
      }
    }
  }
}
node {
  name: "v0/resnet_v13/conv12/conv2d/Conv2D"
  op: "Conv2D"
  input: "v0/resnet_v12/Relu"
  input: "v0/resnet_v13/conv12/conv2d/kernel/read"
  attr {
    key: "T"
    value {
      type: DT_FLOAT
    }
  }
  attr {
    key: "data_format"
    value {
      s: "NHWC"
    }
  }
  attr {
    key: "dilations"
    value {
      list {
        i: 1
        i: 1
        i: 1
        i: 1
      }
    }
  }
  attr {
    key: "padding"
    value {
      s: "SAME"
    }
  }
  attr {
    key: "strides"
    value {
      list {
        i: 1
        i: 2
        i: 2
        i: 1
      }
    }
  }
  attr {
    key: "use_cudnn_on_gpu"
    value {
      b: true
    }
  }
}
node {
  name: "v0/resnet_v13/conv12/batchnorm12/gamma"
  op: "VariableV2"
  attr {
    key: "_class"
    value {
      list {
        s: "loc:@v0/resnet_v13/conv12/batchnorm12/gamma"
      }
    }
  }
  attr {
    key: "container"
    value {
      s: ""
    }
  }
  attr {
    key: "dtype"
    value {
      type: DT_FLOAT
    }
  }
  attr {
    key: "shape"
    value {
      shape {
        dim {
          size: 128
        }
      }
    }
  }
  attr {
    key: "shared_name"
    value {
      s: ""
    }
  }
}
node {
  name: "v0/resnet_v13/conv12/batchnorm12/gamma/read"
  op: "Identity"
  input: "v0/resnet_v13/conv12/batchnorm12/gamma"
  attr {
    key: "T"
    value {
      type: DT_FLOAT
    }
  }
  attr {
    key: "_class"
    value {
      list {
        s: "loc:@v0/resnet_v13/conv12/batchnorm12/gamma"
      }
    }
  }
}
node {
  name: "v0/resnet_v13/conv12/batchnorm12/beta"
  op: "VariableV2"
  attr {
    key: "_class"
    value {
      list {
        s: "loc:@v0/resnet_v13/conv12/batchnorm12/beta"
      }
    }
  }
  attr {
    key: "container"
    value {
      s: ""
    }
  }
  attr {
    key: "dtype"
    value {
      type: DT_FLOAT
    }
  }
  attr {
    key: "shape"
    value {
      shape {
        dim {
          size: 128
        }
      }
    }
  }
  attr {
    key: "shared_name"
    value {
      s: ""
    }
  }
}
node {
  name: "v0/resnet_v13/conv12/batchnorm12/beta/read"
  op: "Identity"
  input: "v0/resnet_v13/conv12/batchnorm12/beta"
  attr {
    key: "T"
    value {
      type: DT_FLOAT
    }
  }
  attr {
    key: "_class"
    value {
      list {
        s: "loc:@v0/resnet_v13/conv12/batchnorm12/beta"
      }
    }
  }
}
node {
  name: "v0/resnet_v13/conv12/batchnorm12/moving_mean"
  op: "VariableV2"
  attr {
    key: "_class"
    value {
      list {
        s: "loc:@v0/resnet_v13/conv12/batchnorm12/moving_mean"
      }
    }
  }
  attr {
    key: "container"
    value {
      s: ""
    }
  }
  attr {
    key: "dtype"
    value {
      type: DT_FLOAT
    }
  }
  attr {
    key: "shape"
    value {
      shape {
        dim {
          size: 128
        }
      }
    }
  }
  attr {
    key: "shared_name"
    value {
      s: ""
    }
  }
}
node {
  name: "v0/resnet_v13/conv12/batchnorm12/moving_mean/read"
  op: "Identity"
  input: "v0/resnet_v13/conv12/batchnorm12/moving_mean"
  attr {
    key: "T"
    value {
      type: DT_FLOAT
    }
  }
  attr {
    key: "_class"
    value {
      list {
        s: "loc:@v0/resnet_v13/conv12/batchnorm12/moving_mean"
      }
    }
  }
}
node {
  name: "v0/resnet_v13/conv12/batchnorm12/moving_variance"
  op: "VariableV2"
  attr {
    key: "_class"
    value {
      list {
        s: "loc:@v0/resnet_v13/conv12/batchnorm12/moving_variance"
      }
    }
  }
  attr {
    key: "container"
    value {
      s: ""
    }
  }
  attr {
    key: "dtype"
    value {
      type: DT_FLOAT
    }
  }
  attr {
    key: "shape"
    value {
      shape {
        dim {
          size: 128
        }
      }
    }
  }
  attr {
    key: "shared_name"
    value {
      s: ""
    }
  }
}
node {
  name: "v0/resnet_v13/conv12/batchnorm12/moving_variance/read"
  op: "Identity"
  input: "v0/resnet_v13/conv12/batchnorm12/moving_variance"
  attr {
    key: "T"
    value {
      type: DT_FLOAT
    }
  }
  attr {
    key: "_class"
    value {
      list {
        s: "loc:@v0/resnet_v13/conv12/batchnorm12/moving_variance"
      }
    }
  }
}
node {
  name: "v0/resnet_v13/conv12/batchnorm12/FusedBatchNorm"
  op: "FusedBatchNorm"
  input: "v0/resnet_v13/conv12/conv2d/Conv2D"
  input: "v0/resnet_v13/conv12/batchnorm12/gamma/read"
  input: "v0/resnet_v13/conv12/batchnorm12/beta/read"
  input: "v0/resnet_v13/conv12/batchnorm12/moving_mean/read"
  input: "v0/resnet_v13/conv12/batchnorm12/moving_variance/read"
  attr {
    key: "T"
    value {
      type: DT_FLOAT
    }
  }
  attr {
    key: "data_format"
    value {
      s: "NHWC"
    }
  }
  attr {
    key: "epsilon"
    value {
      f: 1.00099996416e-05
    }
  }
  attr {
    key: "is_training"
    value {
      b: false
    }
  }
}
node {
  name: "v0/resnet_v13/conv12/Relu"
  op: "Relu"
  input: "v0/resnet_v13/conv12/batchnorm12/FusedBatchNorm"
  attr {
    key: "T"
    value {
      type: DT_FLOAT
    }
  }
}
node {
  name: "v0/resnet_v13/conv13/conv2d/kernel"
  op: "VariableV2"
  attr {
    key: "_class"
    value {
      list {
        s: "loc:@v0/resnet_v13/conv13/conv2d/kernel"
      }
    }
  }
  attr {
    key: "container"
    value {
      s: ""
    }
  }
  attr {
    key: "dtype"
    value {
      type: DT_FLOAT
    }
  }
  attr {
    key: "shape"
    value {
      shape {
        dim {
          size: 3
        }
        dim {
          size: 3
        }
        dim {
          size: 128
        }
        dim {
          size: 128
        }
      }
    }
  }
  attr {
    key: "shared_name"
    value {
      s: ""
    }
  }
}
node {
  name: "v0/resnet_v13/conv13/conv2d/kernel/read"
  op: "Identity"
  input: "v0/resnet_v13/conv13/conv2d/kernel"
  attr {
    key: "T"
    value {
      type: DT_FLOAT
    }
  }
  attr {
    key: "_class"
    value {
      list {
        s: "loc:@v0/resnet_v13/conv13/conv2d/kernel"
      }
    }
  }
}
node {
  name: "v0/resnet_v13/conv13/conv2d/Conv2D"
  op: "Conv2D"
  input: "v0/resnet_v13/conv12/Relu"
  input: "v0/resnet_v13/conv13/conv2d/kernel/read"
  attr {
    key: "T"
    value {
      type: DT_FLOAT
    }
  }
  attr {
    key: "data_format"
    value {
      s: "NHWC"
    }
  }
  attr {
    key: "dilations"
    value {
      list {
        i: 1
        i: 1
        i: 1
        i: 1
      }
    }
  }
  attr {
    key: "padding"
    value {
      s: "SAME"
    }
  }
  attr {
    key: "strides"
    value {
      list {
        i: 1
        i: 1
        i: 1
        i: 1
      }
    }
  }
  attr {
    key: "use_cudnn_on_gpu"
    value {
      b: true
    }
  }
}
node {
  name: "v0/resnet_v13/conv13/batchnorm13/gamma"
  op: "VariableV2"
  attr {
    key: "_class"
    value {
      list {
        s: "loc:@v0/resnet_v13/conv13/batchnorm13/gamma"
      }
    }
  }
  attr {
    key: "container"
    value {
      s: ""
    }
  }
  attr {
    key: "dtype"
    value {
      type: DT_FLOAT
    }
  }
  attr {
    key: "shape"
    value {
      shape {
        dim {
          size: 128
        }
      }
    }
  }
  attr {
    key: "shared_name"
    value {
      s: ""
    }
  }
}
node {
  name: "v0/resnet_v13/conv13/batchnorm13/gamma/read"
  op: "Identity"
  input: "v0/resnet_v13/conv13/batchnorm13/gamma"
  attr {
    key: "T"
    value {
      type: DT_FLOAT
    }
  }
  attr {
    key: "_class"
    value {
      list {
        s: "loc:@v0/resnet_v13/conv13/batchnorm13/gamma"
      }
    }
  }
}
node {
  name: "v0/resnet_v13/conv13/batchnorm13/beta"
  op: "VariableV2"
  attr {
    key: "_class"
    value {
      list {
        s: "loc:@v0/resnet_v13/conv13/batchnorm13/beta"
      }
    }
  }
  attr {
    key: "container"
    value {
      s: ""
    }
  }
  attr {
    key: "dtype"
    value {
      type: DT_FLOAT
    }
  }
  attr {
    key: "shape"
    value {
      shape {
        dim {
          size: 128
        }
      }
    }
  }
  attr {
    key: "shared_name"
    value {
      s: ""
    }
  }
}
node {
  name: "v0/resnet_v13/conv13/batchnorm13/beta/read"
  op: "Identity"
  input: "v0/resnet_v13/conv13/batchnorm13/beta"
  attr {
    key: "T"
    value {
      type: DT_FLOAT
    }
  }
  attr {
    key: "_class"
    value {
      list {
        s: "loc:@v0/resnet_v13/conv13/batchnorm13/beta"
      }
    }
  }
}
node {
  name: "v0/resnet_v13/conv13/batchnorm13/moving_mean"
  op: "VariableV2"
  attr {
    key: "_class"
    value {
      list {
        s: "loc:@v0/resnet_v13/conv13/batchnorm13/moving_mean"
      }
    }
  }
  attr {
    key: "container"
    value {
      s: ""
    }
  }
  attr {
    key: "dtype"
    value {
      type: DT_FLOAT
    }
  }
  attr {
    key: "shape"
    value {
      shape {
        dim {
          size: 128
        }
      }
    }
  }
  attr {
    key: "shared_name"
    value {
      s: ""
    }
  }
}
node {
  name: "v0/resnet_v13/conv13/batchnorm13/moving_mean/read"
  op: "Identity"
  input: "v0/resnet_v13/conv13/batchnorm13/moving_mean"
  attr {
    key: "T"
    value {
      type: DT_FLOAT
    }
  }
  attr {
    key: "_class"
    value {
      list {
        s: "loc:@v0/resnet_v13/conv13/batchnorm13/moving_mean"
      }
    }
  }
}
node {
  name: "v0/resnet_v13/conv13/batchnorm13/moving_variance"
  op: "VariableV2"
  attr {
    key: "_class"
    value {
      list {
        s: "loc:@v0/resnet_v13/conv13/batchnorm13/moving_variance"
      }
    }
  }
  attr {
    key: "container"
    value {
      s: ""
    }
  }
  attr {
    key: "dtype"
    value {
      type: DT_FLOAT
    }
  }
  attr {
    key: "shape"
    value {
      shape {
        dim {
          size: 128
        }
      }
    }
  }
  attr {
    key: "shared_name"
    value {
      s: ""
    }
  }
}
node {
  name: "v0/resnet_v13/conv13/batchnorm13/moving_variance/read"
  op: "Identity"
  input: "v0/resnet_v13/conv13/batchnorm13/moving_variance"
  attr {
    key: "T"
    value {
      type: DT_FLOAT
    }
  }
  attr {
    key: "_class"
    value {
      list {
        s: "loc:@v0/resnet_v13/conv13/batchnorm13/moving_variance"
      }
    }
  }
}
node {
  name: "v0/resnet_v13/conv13/batchnorm13/FusedBatchNorm"
  op: "FusedBatchNorm"
  input: "v0/resnet_v13/conv13/conv2d/Conv2D"
  input: "v0/resnet_v13/conv13/batchnorm13/gamma/read"
  input: "v0/resnet_v13/conv13/batchnorm13/beta/read"
  input: "v0/resnet_v13/conv13/batchnorm13/moving_mean/read"
  input: "v0/resnet_v13/conv13/batchnorm13/moving_variance/read"
  attr {
    key: "T"
    value {
      type: DT_FLOAT
    }
  }
  attr {
    key: "data_format"
    value {
      s: "NHWC"
    }
  }
  attr {
    key: "epsilon"
    value {
      f: 1.00099996416e-05
    }
  }
  attr {
    key: "is_training"
    value {
      b: false
    }
  }
}
node {
  name: "v0/resnet_v13/conv13/Relu"
  op: "Relu"
  input: "v0/resnet_v13/conv13/batchnorm13/FusedBatchNorm"
  attr {
    key: "T"
    value {
      type: DT_FLOAT
    }
  }
}
node {
  name: "v0/resnet_v13/conv14/conv2d/kernel"
  op: "VariableV2"
  attr {
    key: "_class"
    value {
      list {
        s: "loc:@v0/resnet_v13/conv14/conv2d/kernel"
      }
    }
  }
  attr {
    key: "container"
    value {
      s: ""
    }
  }
  attr {
    key: "dtype"
    value {
      type: DT_FLOAT
    }
  }
  attr {
    key: "shape"
    value {
      shape {
        dim {
          size: 1
        }
        dim {
          size: 1
        }
        dim {
          size: 128
        }
        dim {
          size: 512
        }
      }
    }
  }
  attr {
    key: "shared_name"
    value {
      s: ""
    }
  }
}
node {
  name: "v0/resnet_v13/conv14/conv2d/kernel/read"
  op: "Identity"
  input: "v0/resnet_v13/conv14/conv2d/kernel"
  attr {
    key: "T"
    value {
      type: DT_FLOAT
    }
  }
  attr {
    key: "_class"
    value {
      list {
        s: "loc:@v0/resnet_v13/conv14/conv2d/kernel"
      }
    }
  }
}
node {
  name: "v0/resnet_v13/conv14/conv2d/Conv2D"
  op: "Conv2D"
  input: "v0/resnet_v13/conv13/Relu"
  input: "v0/resnet_v13/conv14/conv2d/kernel/read"
  attr {
    key: "T"
    value {
      type: DT_FLOAT
    }
  }
  attr {
    key: "data_format"
    value {
      s: "NHWC"
    }
  }
  attr {
    key: "dilations"
    value {
      list {
        i: 1
        i: 1
        i: 1
        i: 1
      }
    }
  }
  attr {
    key: "padding"
    value {
      s: "SAME"
    }
  }
  attr {
    key: "strides"
    value {
      list {
        i: 1
        i: 1
        i: 1
        i: 1
      }
    }
  }
  attr {
    key: "use_cudnn_on_gpu"
    value {
      b: true
    }
  }
}
node {
  name: "v0/resnet_v13/conv14/batchnorm14/gamma"
  op: "VariableV2"
  attr {
    key: "_class"
    value {
      list {
        s: "loc:@v0/resnet_v13/conv14/batchnorm14/gamma"
      }
    }
  }
  attr {
    key: "container"
    value {
      s: ""
    }
  }
  attr {
    key: "dtype"
    value {
      type: DT_FLOAT
    }
  }
  attr {
    key: "shape"
    value {
      shape {
        dim {
          size: 512
        }
      }
    }
  }
  attr {
    key: "shared_name"
    value {
      s: ""
    }
  }
}
node {
  name: "v0/resnet_v13/conv14/batchnorm14/gamma/read"
  op: "Identity"
  input: "v0/resnet_v13/conv14/batchnorm14/gamma"
  attr {
    key: "T"
    value {
      type: DT_FLOAT
    }
  }
  attr {
    key: "_class"
    value {
      list {
        s: "loc:@v0/resnet_v13/conv14/batchnorm14/gamma"
      }
    }
  }
}
node {
  name: "v0/resnet_v13/conv14/batchnorm14/beta"
  op: "VariableV2"
  attr {
    key: "_class"
    value {
      list {
        s: "loc:@v0/resnet_v13/conv14/batchnorm14/beta"
      }
    }
  }
  attr {
    key: "container"
    value {
      s: ""
    }
  }
  attr {
    key: "dtype"
    value {
      type: DT_FLOAT
    }
  }
  attr {
    key: "shape"
    value {
      shape {
        dim {
          size: 512
        }
      }
    }
  }
  attr {
    key: "shared_name"
    value {
      s: ""
    }
  }
}
node {
  name: "v0/resnet_v13/conv14/batchnorm14/beta/read"
  op: "Identity"
  input: "v0/resnet_v13/conv14/batchnorm14/beta"
  attr {
    key: "T"
    value {
      type: DT_FLOAT
    }
  }
  attr {
    key: "_class"
    value {
      list {
        s: "loc:@v0/resnet_v13/conv14/batchnorm14/beta"
      }
    }
  }
}
node {
  name: "v0/resnet_v13/conv14/batchnorm14/moving_mean"
  op: "VariableV2"
  attr {
    key: "_class"
    value {
      list {
        s: "loc:@v0/resnet_v13/conv14/batchnorm14/moving_mean"
      }
    }
  }
  attr {
    key: "container"
    value {
      s: ""
    }
  }
  attr {
    key: "dtype"
    value {
      type: DT_FLOAT
    }
  }
  attr {
    key: "shape"
    value {
      shape {
        dim {
          size: 512
        }
      }
    }
  }
  attr {
    key: "shared_name"
    value {
      s: ""
    }
  }
}
node {
  name: "v0/resnet_v13/conv14/batchnorm14/moving_mean/read"
  op: "Identity"
  input: "v0/resnet_v13/conv14/batchnorm14/moving_mean"
  attr {
    key: "T"
    value {
      type: DT_FLOAT
    }
  }
  attr {
    key: "_class"
    value {
      list {
        s: "loc:@v0/resnet_v13/conv14/batchnorm14/moving_mean"
      }
    }
  }
}
node {
  name: "v0/resnet_v13/conv14/batchnorm14/moving_variance"
  op: "VariableV2"
  attr {
    key: "_class"
    value {
      list {
        s: "loc:@v0/resnet_v13/conv14/batchnorm14/moving_variance"
      }
    }
  }
  attr {
    key: "container"
    value {
      s: ""
    }
  }
  attr {
    key: "dtype"
    value {
      type: DT_FLOAT
    }
  }
  attr {
    key: "shape"
    value {
      shape {
        dim {
          size: 512
        }
      }
    }
  }
  attr {
    key: "shared_name"
    value {
      s: ""
    }
  }
}
node {
  name: "v0/resnet_v13/conv14/batchnorm14/moving_variance/read"
  op: "Identity"
  input: "v0/resnet_v13/conv14/batchnorm14/moving_variance"
  attr {
    key: "T"
    value {
      type: DT_FLOAT
    }
  }
  attr {
    key: "_class"
    value {
      list {
        s: "loc:@v0/resnet_v13/conv14/batchnorm14/moving_variance"
      }
    }
  }
}
node {
  name: "v0/resnet_v13/conv14/batchnorm14/FusedBatchNorm"
  op: "FusedBatchNorm"
  input: "v0/resnet_v13/conv14/conv2d/Conv2D"
  input: "v0/resnet_v13/conv14/batchnorm14/gamma/read"
  input: "v0/resnet_v13/conv14/batchnorm14/beta/read"
  input: "v0/resnet_v13/conv14/batchnorm14/moving_mean/read"
  input: "v0/resnet_v13/conv14/batchnorm14/moving_variance/read"
  attr {
    key: "T"
    value {
      type: DT_FLOAT
    }
  }
  attr {
    key: "data_format"
    value {
      s: "NHWC"
    }
  }
  attr {
    key: "epsilon"
    value {
      f: 1.00099996416e-05
    }
  }
  attr {
    key: "is_training"
    value {
      b: false
    }
  }
}
node {
  name: "v0/resnet_v13/AddN"
  op: "AddN"
  input: "v0/resnet_v13/conv11/batchnorm11/FusedBatchNorm"
  input: "v0/resnet_v13/conv14/batchnorm14/FusedBatchNorm"
  attr {
    key: "N"
    value {
      i: 2
    }
  }
  attr {
    key: "T"
    value {
      type: DT_FLOAT
    }
  }
}
node {
  name: "v0/resnet_v13/Relu"
  op: "Relu"
  input: "v0/resnet_v13/AddN"
  attr {
    key: "T"
    value {
      type: DT_FLOAT
    }
  }
}
node {
  name: "v0/resnet_v14/conv15/conv2d/kernel"
  op: "VariableV2"
  attr {
    key: "_class"
    value {
      list {
        s: "loc:@v0/resnet_v14/conv15/conv2d/kernel"
      }
    }
  }
  attr {
    key: "container"
    value {
      s: ""
    }
  }
  attr {
    key: "dtype"
    value {
      type: DT_FLOAT
    }
  }
  attr {
    key: "shape"
    value {
      shape {
        dim {
          size: 1
        }
        dim {
          size: 1
        }
        dim {
          size: 512
        }
        dim {
          size: 128
        }
      }
    }
  }
  attr {
    key: "shared_name"
    value {
      s: ""
    }
  }
}
node {
  name: "v0/resnet_v14/conv15/conv2d/kernel/read"
  op: "Identity"
  input: "v0/resnet_v14/conv15/conv2d/kernel"
  attr {
    key: "T"
    value {
      type: DT_FLOAT
    }
  }
  attr {
    key: "_class"
    value {
      list {
        s: "loc:@v0/resnet_v14/conv15/conv2d/kernel"
      }
    }
  }
}
node {
  name: "v0/resnet_v14/conv15/conv2d/Conv2D"
  op: "Conv2D"
  input: "v0/resnet_v13/Relu"
  input: "v0/resnet_v14/conv15/conv2d/kernel/read"
  attr {
    key: "T"
    value {
      type: DT_FLOAT
    }
  }
  attr {
    key: "data_format"
    value {
      s: "NHWC"
    }
  }
  attr {
    key: "dilations"
    value {
      list {
        i: 1
        i: 1
        i: 1
        i: 1
      }
    }
  }
  attr {
    key: "padding"
    value {
      s: "SAME"
    }
  }
  attr {
    key: "strides"
    value {
      list {
        i: 1
        i: 1
        i: 1
        i: 1
      }
    }
  }
  attr {
    key: "use_cudnn_on_gpu"
    value {
      b: true
    }
  }
}
node {
  name: "v0/resnet_v14/conv15/batchnorm15/gamma"
  op: "VariableV2"
  attr {
    key: "_class"
    value {
      list {
        s: "loc:@v0/resnet_v14/conv15/batchnorm15/gamma"
      }
    }
  }
  attr {
    key: "container"
    value {
      s: ""
    }
  }
  attr {
    key: "dtype"
    value {
      type: DT_FLOAT
    }
  }
  attr {
    key: "shape"
    value {
      shape {
        dim {
          size: 128
        }
      }
    }
  }
  attr {
    key: "shared_name"
    value {
      s: ""
    }
  }
}
node {
  name: "v0/resnet_v14/conv15/batchnorm15/gamma/read"
  op: "Identity"
  input: "v0/resnet_v14/conv15/batchnorm15/gamma"
  attr {
    key: "T"
    value {
      type: DT_FLOAT
    }
  }
  attr {
    key: "_class"
    value {
      list {
        s: "loc:@v0/resnet_v14/conv15/batchnorm15/gamma"
      }
    }
  }
}
node {
  name: "v0/resnet_v14/conv15/batchnorm15/beta"
  op: "VariableV2"
  attr {
    key: "_class"
    value {
      list {
        s: "loc:@v0/resnet_v14/conv15/batchnorm15/beta"
      }
    }
  }
  attr {
    key: "container"
    value {
      s: ""
    }
  }
  attr {
    key: "dtype"
    value {
      type: DT_FLOAT
    }
  }
  attr {
    key: "shape"
    value {
      shape {
        dim {
          size: 128
        }
      }
    }
  }
  attr {
    key: "shared_name"
    value {
      s: ""
    }
  }
}
node {
  name: "v0/resnet_v14/conv15/batchnorm15/beta/read"
  op: "Identity"
  input: "v0/resnet_v14/conv15/batchnorm15/beta"
  attr {
    key: "T"
    value {
      type: DT_FLOAT
    }
  }
  attr {
    key: "_class"
    value {
      list {
        s: "loc:@v0/resnet_v14/conv15/batchnorm15/beta"
      }
    }
  }
}
node {
  name: "v0/resnet_v14/conv15/batchnorm15/moving_mean"
  op: "VariableV2"
  attr {
    key: "_class"
    value {
      list {
        s: "loc:@v0/resnet_v14/conv15/batchnorm15/moving_mean"
      }
    }
  }
  attr {
    key: "container"
    value {
      s: ""
    }
  }
  attr {
    key: "dtype"
    value {
      type: DT_FLOAT
    }
  }
  attr {
    key: "shape"
    value {
      shape {
        dim {
          size: 128
        }
      }
    }
  }
  attr {
    key: "shared_name"
    value {
      s: ""
    }
  }
}
node {
  name: "v0/resnet_v14/conv15/batchnorm15/moving_mean/read"
  op: "Identity"
  input: "v0/resnet_v14/conv15/batchnorm15/moving_mean"
  attr {
    key: "T"
    value {
      type: DT_FLOAT
    }
  }
  attr {
    key: "_class"
    value {
      list {
        s: "loc:@v0/resnet_v14/conv15/batchnorm15/moving_mean"
      }
    }
  }
}
node {
  name: "v0/resnet_v14/conv15/batchnorm15/moving_variance"
  op: "VariableV2"
  attr {
    key: "_class"
    value {
      list {
        s: "loc:@v0/resnet_v14/conv15/batchnorm15/moving_variance"
      }
    }
  }
  attr {
    key: "container"
    value {
      s: ""
    }
  }
  attr {
    key: "dtype"
    value {
      type: DT_FLOAT
    }
  }
  attr {
    key: "shape"
    value {
      shape {
        dim {
          size: 128
        }
      }
    }
  }
  attr {
    key: "shared_name"
    value {
      s: ""
    }
  }
}
node {
  name: "v0/resnet_v14/conv15/batchnorm15/moving_variance/read"
  op: "Identity"
  input: "v0/resnet_v14/conv15/batchnorm15/moving_variance"
  attr {
    key: "T"
    value {
      type: DT_FLOAT
    }
  }
  attr {
    key: "_class"
    value {
      list {
        s: "loc:@v0/resnet_v14/conv15/batchnorm15/moving_variance"
      }
    }
  }
}
node {
  name: "v0/resnet_v14/conv15/batchnorm15/FusedBatchNorm"
  op: "FusedBatchNorm"
  input: "v0/resnet_v14/conv15/conv2d/Conv2D"
  input: "v0/resnet_v14/conv15/batchnorm15/gamma/read"
  input: "v0/resnet_v14/conv15/batchnorm15/beta/read"
  input: "v0/resnet_v14/conv15/batchnorm15/moving_mean/read"
  input: "v0/resnet_v14/conv15/batchnorm15/moving_variance/read"
  attr {
    key: "T"
    value {
      type: DT_FLOAT
    }
  }
  attr {
    key: "data_format"
    value {
      s: "NHWC"
    }
  }
  attr {
    key: "epsilon"
    value {
      f: 1.00099996416e-05
    }
  }
  attr {
    key: "is_training"
    value {
      b: false
    }
  }
}
node {
  name: "v0/resnet_v14/conv15/Relu"
  op: "Relu"
  input: "v0/resnet_v14/conv15/batchnorm15/FusedBatchNorm"
  attr {
    key: "T"
    value {
      type: DT_FLOAT
    }
  }
}
node {
  name: "v0/resnet_v14/conv16/conv2d/kernel"
  op: "VariableV2"
  attr {
    key: "_class"
    value {
      list {
        s: "loc:@v0/resnet_v14/conv16/conv2d/kernel"
      }
    }
  }
  attr {
    key: "container"
    value {
      s: ""
    }
  }
  attr {
    key: "dtype"
    value {
      type: DT_FLOAT
    }
  }
  attr {
    key: "shape"
    value {
      shape {
        dim {
          size: 3
        }
        dim {
          size: 3
        }
        dim {
          size: 128
        }
        dim {
          size: 128
        }
      }
    }
  }
  attr {
    key: "shared_name"
    value {
      s: ""
    }
  }
}
node {
  name: "v0/resnet_v14/conv16/conv2d/kernel/read"
  op: "Identity"
  input: "v0/resnet_v14/conv16/conv2d/kernel"
  attr {
    key: "T"
    value {
      type: DT_FLOAT
    }
  }
  attr {
    key: "_class"
    value {
      list {
        s: "loc:@v0/resnet_v14/conv16/conv2d/kernel"
      }
    }
  }
}
node {
  name: "v0/resnet_v14/conv16/conv2d/Conv2D"
  op: "Conv2D"
  input: "v0/resnet_v14/conv15/Relu"
  input: "v0/resnet_v14/conv16/conv2d/kernel/read"
  attr {
    key: "T"
    value {
      type: DT_FLOAT
    }
  }
  attr {
    key: "data_format"
    value {
      s: "NHWC"
    }
  }
  attr {
    key: "dilations"
    value {
      list {
        i: 1
        i: 1
        i: 1
        i: 1
      }
    }
  }
  attr {
    key: "padding"
    value {
      s: "SAME"
    }
  }
  attr {
    key: "strides"
    value {
      list {
        i: 1
        i: 1
        i: 1
        i: 1
      }
    }
  }
  attr {
    key: "use_cudnn_on_gpu"
    value {
      b: true
    }
  }
}
node {
  name: "v0/resnet_v14/conv16/batchnorm16/gamma"
  op: "VariableV2"
  attr {
    key: "_class"
    value {
      list {
        s: "loc:@v0/resnet_v14/conv16/batchnorm16/gamma"
      }
    }
  }
  attr {
    key: "container"
    value {
      s: ""
    }
  }
  attr {
    key: "dtype"
    value {
      type: DT_FLOAT
    }
  }
  attr {
    key: "shape"
    value {
      shape {
        dim {
          size: 128
        }
      }
    }
  }
  attr {
    key: "shared_name"
    value {
      s: ""
    }
  }
}
node {
  name: "v0/resnet_v14/conv16/batchnorm16/gamma/read"
  op: "Identity"
  input: "v0/resnet_v14/conv16/batchnorm16/gamma"
  attr {
    key: "T"
    value {
      type: DT_FLOAT
    }
  }
  attr {
    key: "_class"
    value {
      list {
        s: "loc:@v0/resnet_v14/conv16/batchnorm16/gamma"
      }
    }
  }
}
node {
  name: "v0/resnet_v14/conv16/batchnorm16/beta"
  op: "VariableV2"
  attr {
    key: "_class"
    value {
      list {
        s: "loc:@v0/resnet_v14/conv16/batchnorm16/beta"
      }
    }
  }
  attr {
    key: "container"
    value {
      s: ""
    }
  }
  attr {
    key: "dtype"
    value {
      type: DT_FLOAT
    }
  }
  attr {
    key: "shape"
    value {
      shape {
        dim {
          size: 128
        }
      }
    }
  }
  attr {
    key: "shared_name"
    value {
      s: ""
    }
  }
}
node {
  name: "v0/resnet_v14/conv16/batchnorm16/beta/read"
  op: "Identity"
  input: "v0/resnet_v14/conv16/batchnorm16/beta"
  attr {
    key: "T"
    value {
      type: DT_FLOAT
    }
  }
  attr {
    key: "_class"
    value {
      list {
        s: "loc:@v0/resnet_v14/conv16/batchnorm16/beta"
      }
    }
  }
}
node {
  name: "v0/resnet_v14/conv16/batchnorm16/moving_mean"
  op: "VariableV2"
  attr {
    key: "_class"
    value {
      list {
        s: "loc:@v0/resnet_v14/conv16/batchnorm16/moving_mean"
      }
    }
  }
  attr {
    key: "container"
    value {
      s: ""
    }
  }
  attr {
    key: "dtype"
    value {
      type: DT_FLOAT
    }
  }
  attr {
    key: "shape"
    value {
      shape {
        dim {
          size: 128
        }
      }
    }
  }
  attr {
    key: "shared_name"
    value {
      s: ""
    }
  }
}
node {
  name: "v0/resnet_v14/conv16/batchnorm16/moving_mean/read"
  op: "Identity"
  input: "v0/resnet_v14/conv16/batchnorm16/moving_mean"
  attr {
    key: "T"
    value {
      type: DT_FLOAT
    }
  }
  attr {
    key: "_class"
    value {
      list {
        s: "loc:@v0/resnet_v14/conv16/batchnorm16/moving_mean"
      }
    }
  }
}
node {
  name: "v0/resnet_v14/conv16/batchnorm16/moving_variance"
  op: "VariableV2"
  attr {
    key: "_class"
    value {
      list {
        s: "loc:@v0/resnet_v14/conv16/batchnorm16/moving_variance"
      }
    }
  }
  attr {
    key: "container"
    value {
      s: ""
    }
  }
  attr {
    key: "dtype"
    value {
      type: DT_FLOAT
    }
  }
  attr {
    key: "shape"
    value {
      shape {
        dim {
          size: 128
        }
      }
    }
  }
  attr {
    key: "shared_name"
    value {
      s: ""
    }
  }
}
node {
  name: "v0/resnet_v14/conv16/batchnorm16/moving_variance/read"
  op: "Identity"
  input: "v0/resnet_v14/conv16/batchnorm16/moving_variance"
  attr {
    key: "T"
    value {
      type: DT_FLOAT
    }
  }
  attr {
    key: "_class"
    value {
      list {
        s: "loc:@v0/resnet_v14/conv16/batchnorm16/moving_variance"
      }
    }
  }
}
node {
  name: "v0/resnet_v14/conv16/batchnorm16/FusedBatchNorm"
  op: "FusedBatchNorm"
  input: "v0/resnet_v14/conv16/conv2d/Conv2D"
  input: "v0/resnet_v14/conv16/batchnorm16/gamma/read"
  input: "v0/resnet_v14/conv16/batchnorm16/beta/read"
  input: "v0/resnet_v14/conv16/batchnorm16/moving_mean/read"
  input: "v0/resnet_v14/conv16/batchnorm16/moving_variance/read"
  attr {
    key: "T"
    value {
      type: DT_FLOAT
    }
  }
  attr {
    key: "data_format"
    value {
      s: "NHWC"
    }
  }
  attr {
    key: "epsilon"
    value {
      f: 1.00099996416e-05
    }
  }
  attr {
    key: "is_training"
    value {
      b: false
    }
  }
}
node {
  name: "v0/resnet_v14/conv16/Relu"
  op: "Relu"
  input: "v0/resnet_v14/conv16/batchnorm16/FusedBatchNorm"
  attr {
    key: "T"
    value {
      type: DT_FLOAT
    }
  }
}
node {
  name: "v0/resnet_v14/conv17/conv2d/kernel"
  op: "VariableV2"
  attr {
    key: "_class"
    value {
      list {
        s: "loc:@v0/resnet_v14/conv17/conv2d/kernel"
      }
    }
  }
  attr {
    key: "container"
    value {
      s: ""
    }
  }
  attr {
    key: "dtype"
    value {
      type: DT_FLOAT
    }
  }
  attr {
    key: "shape"
    value {
      shape {
        dim {
          size: 1
        }
        dim {
          size: 1
        }
        dim {
          size: 128
        }
        dim {
          size: 512
        }
      }
    }
  }
  attr {
    key: "shared_name"
    value {
      s: ""
    }
  }
}
node {
  name: "v0/resnet_v14/conv17/conv2d/kernel/read"
  op: "Identity"
  input: "v0/resnet_v14/conv17/conv2d/kernel"
  attr {
    key: "T"
    value {
      type: DT_FLOAT
    }
  }
  attr {
    key: "_class"
    value {
      list {
        s: "loc:@v0/resnet_v14/conv17/conv2d/kernel"
      }
    }
  }
}
node {
  name: "v0/resnet_v14/conv17/conv2d/Conv2D"
  op: "Conv2D"
  input: "v0/resnet_v14/conv16/Relu"
  input: "v0/resnet_v14/conv17/conv2d/kernel/read"
  attr {
    key: "T"
    value {
      type: DT_FLOAT
    }
  }
  attr {
    key: "data_format"
    value {
      s: "NHWC"
    }
  }
  attr {
    key: "dilations"
    value {
      list {
        i: 1
        i: 1
        i: 1
        i: 1
      }
    }
  }
  attr {
    key: "padding"
    value {
      s: "SAME"
    }
  }
  attr {
    key: "strides"
    value {
      list {
        i: 1
        i: 1
        i: 1
        i: 1
      }
    }
  }
  attr {
    key: "use_cudnn_on_gpu"
    value {
      b: true
    }
  }
}
node {
  name: "v0/resnet_v14/conv17/batchnorm17/gamma"
  op: "VariableV2"
  attr {
    key: "_class"
    value {
      list {
        s: "loc:@v0/resnet_v14/conv17/batchnorm17/gamma"
      }
    }
  }
  attr {
    key: "container"
    value {
      s: ""
    }
  }
  attr {
    key: "dtype"
    value {
      type: DT_FLOAT
    }
  }
  attr {
    key: "shape"
    value {
      shape {
        dim {
          size: 512
        }
      }
    }
  }
  attr {
    key: "shared_name"
    value {
      s: ""
    }
  }
}
node {
  name: "v0/resnet_v14/conv17/batchnorm17/gamma/read"
  op: "Identity"
  input: "v0/resnet_v14/conv17/batchnorm17/gamma"
  attr {
    key: "T"
    value {
      type: DT_FLOAT
    }
  }
  attr {
    key: "_class"
    value {
      list {
        s: "loc:@v0/resnet_v14/conv17/batchnorm17/gamma"
      }
    }
  }
}
node {
  name: "v0/resnet_v14/conv17/batchnorm17/beta"
  op: "VariableV2"
  attr {
    key: "_class"
    value {
      list {
        s: "loc:@v0/resnet_v14/conv17/batchnorm17/beta"
      }
    }
  }
  attr {
    key: "container"
    value {
      s: ""
    }
  }
  attr {
    key: "dtype"
    value {
      type: DT_FLOAT
    }
  }
  attr {
    key: "shape"
    value {
      shape {
        dim {
          size: 512
        }
      }
    }
  }
  attr {
    key: "shared_name"
    value {
      s: ""
    }
  }
}
node {
  name: "v0/resnet_v14/conv17/batchnorm17/beta/read"
  op: "Identity"
  input: "v0/resnet_v14/conv17/batchnorm17/beta"
  attr {
    key: "T"
    value {
      type: DT_FLOAT
    }
  }
  attr {
    key: "_class"
    value {
      list {
        s: "loc:@v0/resnet_v14/conv17/batchnorm17/beta"
      }
    }
  }
}
node {
  name: "v0/resnet_v14/conv17/batchnorm17/moving_mean"
  op: "VariableV2"
  attr {
    key: "_class"
    value {
      list {
        s: "loc:@v0/resnet_v14/conv17/batchnorm17/moving_mean"
      }
    }
  }
  attr {
    key: "container"
    value {
      s: ""
    }
  }
  attr {
    key: "dtype"
    value {
      type: DT_FLOAT
    }
  }
  attr {
    key: "shape"
    value {
      shape {
        dim {
          size: 512
        }
      }
    }
  }
  attr {
    key: "shared_name"
    value {
      s: ""
    }
  }
}
node {
  name: "v0/resnet_v14/conv17/batchnorm17/moving_mean/read"
  op: "Identity"
  input: "v0/resnet_v14/conv17/batchnorm17/moving_mean"
  attr {
    key: "T"
    value {
      type: DT_FLOAT
    }
  }
  attr {
    key: "_class"
    value {
      list {
        s: "loc:@v0/resnet_v14/conv17/batchnorm17/moving_mean"
      }
    }
  }
}
node {
  name: "v0/resnet_v14/conv17/batchnorm17/moving_variance"
  op: "VariableV2"
  attr {
    key: "_class"
    value {
      list {
        s: "loc:@v0/resnet_v14/conv17/batchnorm17/moving_variance"
      }
    }
  }
  attr {
    key: "container"
    value {
      s: ""
    }
  }
  attr {
    key: "dtype"
    value {
      type: DT_FLOAT
    }
  }
  attr {
    key: "shape"
    value {
      shape {
        dim {
          size: 512
        }
      }
    }
  }
  attr {
    key: "shared_name"
    value {
      s: ""
    }
  }
}
node {
  name: "v0/resnet_v14/conv17/batchnorm17/moving_variance/read"
  op: "Identity"
  input: "v0/resnet_v14/conv17/batchnorm17/moving_variance"
  attr {
    key: "T"
    value {
      type: DT_FLOAT
    }
  }
  attr {
    key: "_class"
    value {
      list {
        s: "loc:@v0/resnet_v14/conv17/batchnorm17/moving_variance"
      }
    }
  }
}
node {
  name: "v0/resnet_v14/conv17/batchnorm17/FusedBatchNorm"
  op: "FusedBatchNorm"
  input: "v0/resnet_v14/conv17/conv2d/Conv2D"
  input: "v0/resnet_v14/conv17/batchnorm17/gamma/read"
  input: "v0/resnet_v14/conv17/batchnorm17/beta/read"
  input: "v0/resnet_v14/conv17/batchnorm17/moving_mean/read"
  input: "v0/resnet_v14/conv17/batchnorm17/moving_variance/read"
  attr {
    key: "T"
    value {
      type: DT_FLOAT
    }
  }
  attr {
    key: "data_format"
    value {
      s: "NHWC"
    }
  }
  attr {
    key: "epsilon"
    value {
      f: 1.00099996416e-05
    }
  }
  attr {
    key: "is_training"
    value {
      b: false
    }
  }
}
node {
  name: "v0/resnet_v14/AddN"
  op: "AddN"
  input: "v0/resnet_v13/Relu"
  input: "v0/resnet_v14/conv17/batchnorm17/FusedBatchNorm"
  attr {
    key: "N"
    value {
      i: 2
    }
  }
  attr {
    key: "T"
    value {
      type: DT_FLOAT
    }
  }
}
node {
  name: "v0/resnet_v14/Relu"
  op: "Relu"
  input: "v0/resnet_v14/AddN"
  attr {
    key: "T"
    value {
      type: DT_FLOAT
    }
  }
}
node {
  name: "v0/resnet_v15/conv18/conv2d/kernel"
  op: "VariableV2"
  attr {
    key: "_class"
    value {
      list {
        s: "loc:@v0/resnet_v15/conv18/conv2d/kernel"
      }
    }
  }
  attr {
    key: "container"
    value {
      s: ""
    }
  }
  attr {
    key: "dtype"
    value {
      type: DT_FLOAT
    }
  }
  attr {
    key: "shape"
    value {
      shape {
        dim {
          size: 1
        }
        dim {
          size: 1
        }
        dim {
          size: 512
        }
        dim {
          size: 128
        }
      }
    }
  }
  attr {
    key: "shared_name"
    value {
      s: ""
    }
  }
}
node {
  name: "v0/resnet_v15/conv18/conv2d/kernel/read"
  op: "Identity"
  input: "v0/resnet_v15/conv18/conv2d/kernel"
  attr {
    key: "T"
    value {
      type: DT_FLOAT
    }
  }
  attr {
    key: "_class"
    value {
      list {
        s: "loc:@v0/resnet_v15/conv18/conv2d/kernel"
      }
    }
  }
}
node {
  name: "v0/resnet_v15/conv18/conv2d/Conv2D"
  op: "Conv2D"
  input: "v0/resnet_v14/Relu"
  input: "v0/resnet_v15/conv18/conv2d/kernel/read"
  attr {
    key: "T"
    value {
      type: DT_FLOAT
    }
  }
  attr {
    key: "data_format"
    value {
      s: "NHWC"
    }
  }
  attr {
    key: "dilations"
    value {
      list {
        i: 1
        i: 1
        i: 1
        i: 1
      }
    }
  }
  attr {
    key: "padding"
    value {
      s: "SAME"
    }
  }
  attr {
    key: "strides"
    value {
      list {
        i: 1
        i: 1
        i: 1
        i: 1
      }
    }
  }
  attr {
    key: "use_cudnn_on_gpu"
    value {
      b: true
    }
  }
}
node {
  name: "v0/resnet_v15/conv18/batchnorm18/gamma"
  op: "VariableV2"
  attr {
    key: "_class"
    value {
      list {
        s: "loc:@v0/resnet_v15/conv18/batchnorm18/gamma"
      }
    }
  }
  attr {
    key: "container"
    value {
      s: ""
    }
  }
  attr {
    key: "dtype"
    value {
      type: DT_FLOAT
    }
  }
  attr {
    key: "shape"
    value {
      shape {
        dim {
          size: 128
        }
      }
    }
  }
  attr {
    key: "shared_name"
    value {
      s: ""
    }
  }
}
node {
  name: "v0/resnet_v15/conv18/batchnorm18/gamma/read"
  op: "Identity"
  input: "v0/resnet_v15/conv18/batchnorm18/gamma"
  attr {
    key: "T"
    value {
      type: DT_FLOAT
    }
  }
  attr {
    key: "_class"
    value {
      list {
        s: "loc:@v0/resnet_v15/conv18/batchnorm18/gamma"
      }
    }
  }
}
node {
  name: "v0/resnet_v15/conv18/batchnorm18/beta"
  op: "VariableV2"
  attr {
    key: "_class"
    value {
      list {
        s: "loc:@v0/resnet_v15/conv18/batchnorm18/beta"
      }
    }
  }
  attr {
    key: "container"
    value {
      s: ""
    }
  }
  attr {
    key: "dtype"
    value {
      type: DT_FLOAT
    }
  }
  attr {
    key: "shape"
    value {
      shape {
        dim {
          size: 128
        }
      }
    }
  }
  attr {
    key: "shared_name"
    value {
      s: ""
    }
  }
}
node {
  name: "v0/resnet_v15/conv18/batchnorm18/beta/read"
  op: "Identity"
  input: "v0/resnet_v15/conv18/batchnorm18/beta"
  attr {
    key: "T"
    value {
      type: DT_FLOAT
    }
  }
  attr {
    key: "_class"
    value {
      list {
        s: "loc:@v0/resnet_v15/conv18/batchnorm18/beta"
      }
    }
  }
}
node {
  name: "v0/resnet_v15/conv18/batchnorm18/moving_mean"
  op: "VariableV2"
  attr {
    key: "_class"
    value {
      list {
        s: "loc:@v0/resnet_v15/conv18/batchnorm18/moving_mean"
      }
    }
  }
  attr {
    key: "container"
    value {
      s: ""
    }
  }
  attr {
    key: "dtype"
    value {
      type: DT_FLOAT
    }
  }
  attr {
    key: "shape"
    value {
      shape {
        dim {
          size: 128
        }
      }
    }
  }
  attr {
    key: "shared_name"
    value {
      s: ""
    }
  }
}
node {
  name: "v0/resnet_v15/conv18/batchnorm18/moving_mean/read"
  op: "Identity"
  input: "v0/resnet_v15/conv18/batchnorm18/moving_mean"
  attr {
    key: "T"
    value {
      type: DT_FLOAT
    }
  }
  attr {
    key: "_class"
    value {
      list {
        s: "loc:@v0/resnet_v15/conv18/batchnorm18/moving_mean"
      }
    }
  }
}
node {
  name: "v0/resnet_v15/conv18/batchnorm18/moving_variance"
  op: "VariableV2"
  attr {
    key: "_class"
    value {
      list {
        s: "loc:@v0/resnet_v15/conv18/batchnorm18/moving_variance"
      }
    }
  }
  attr {
    key: "container"
    value {
      s: ""
    }
  }
  attr {
    key: "dtype"
    value {
      type: DT_FLOAT
    }
  }
  attr {
    key: "shape"
    value {
      shape {
        dim {
          size: 128
        }
      }
    }
  }
  attr {
    key: "shared_name"
    value {
      s: ""
    }
  }
}
node {
  name: "v0/resnet_v15/conv18/batchnorm18/moving_variance/read"
  op: "Identity"
  input: "v0/resnet_v15/conv18/batchnorm18/moving_variance"
  attr {
    key: "T"
    value {
      type: DT_FLOAT
    }
  }
  attr {
    key: "_class"
    value {
      list {
        s: "loc:@v0/resnet_v15/conv18/batchnorm18/moving_variance"
      }
    }
  }
}
node {
  name: "v0/resnet_v15/conv18/batchnorm18/FusedBatchNorm"
  op: "FusedBatchNorm"
  input: "v0/resnet_v15/conv18/conv2d/Conv2D"
  input: "v0/resnet_v15/conv18/batchnorm18/gamma/read"
  input: "v0/resnet_v15/conv18/batchnorm18/beta/read"
  input: "v0/resnet_v15/conv18/batchnorm18/moving_mean/read"
  input: "v0/resnet_v15/conv18/batchnorm18/moving_variance/read"
  attr {
    key: "T"
    value {
      type: DT_FLOAT
    }
  }
  attr {
    key: "data_format"
    value {
      s: "NHWC"
    }
  }
  attr {
    key: "epsilon"
    value {
      f: 1.00099996416e-05
    }
  }
  attr {
    key: "is_training"
    value {
      b: false
    }
  }
}
node {
  name: "v0/resnet_v15/conv18/Relu"
  op: "Relu"
  input: "v0/resnet_v15/conv18/batchnorm18/FusedBatchNorm"
  attr {
    key: "T"
    value {
      type: DT_FLOAT
    }
  }
}
node {
  name: "v0/resnet_v15/conv19/conv2d/kernel"
  op: "VariableV2"
  attr {
    key: "_class"
    value {
      list {
        s: "loc:@v0/resnet_v15/conv19/conv2d/kernel"
      }
    }
  }
  attr {
    key: "container"
    value {
      s: ""
    }
  }
  attr {
    key: "dtype"
    value {
      type: DT_FLOAT
    }
  }
  attr {
    key: "shape"
    value {
      shape {
        dim {
          size: 3
        }
        dim {
          size: 3
        }
        dim {
          size: 128
        }
        dim {
          size: 128
        }
      }
    }
  }
  attr {
    key: "shared_name"
    value {
      s: ""
    }
  }
}
node {
  name: "v0/resnet_v15/conv19/conv2d/kernel/read"
  op: "Identity"
  input: "v0/resnet_v15/conv19/conv2d/kernel"
  attr {
    key: "T"
    value {
      type: DT_FLOAT
    }
  }
  attr {
    key: "_class"
    value {
      list {
        s: "loc:@v0/resnet_v15/conv19/conv2d/kernel"
      }
    }
  }
}
node {
  name: "v0/resnet_v15/conv19/conv2d/Conv2D"
  op: "Conv2D"
  input: "v0/resnet_v15/conv18/Relu"
  input: "v0/resnet_v15/conv19/conv2d/kernel/read"
  attr {
    key: "T"
    value {
      type: DT_FLOAT
    }
  }
  attr {
    key: "data_format"
    value {
      s: "NHWC"
    }
  }
  attr {
    key: "dilations"
    value {
      list {
        i: 1
        i: 1
        i: 1
        i: 1
      }
    }
  }
  attr {
    key: "padding"
    value {
      s: "SAME"
    }
  }
  attr {
    key: "strides"
    value {
      list {
        i: 1
        i: 1
        i: 1
        i: 1
      }
    }
  }
  attr {
    key: "use_cudnn_on_gpu"
    value {
      b: true
    }
  }
}
node {
  name: "v0/resnet_v15/conv19/batchnorm19/gamma"
  op: "VariableV2"
  attr {
    key: "_class"
    value {
      list {
        s: "loc:@v0/resnet_v15/conv19/batchnorm19/gamma"
      }
    }
  }
  attr {
    key: "container"
    value {
      s: ""
    }
  }
  attr {
    key: "dtype"
    value {
      type: DT_FLOAT
    }
  }
  attr {
    key: "shape"
    value {
      shape {
        dim {
          size: 128
        }
      }
    }
  }
  attr {
    key: "shared_name"
    value {
      s: ""
    }
  }
}
node {
  name: "v0/resnet_v15/conv19/batchnorm19/gamma/read"
  op: "Identity"
  input: "v0/resnet_v15/conv19/batchnorm19/gamma"
  attr {
    key: "T"
    value {
      type: DT_FLOAT
    }
  }
  attr {
    key: "_class"
    value {
      list {
        s: "loc:@v0/resnet_v15/conv19/batchnorm19/gamma"
      }
    }
  }
}
node {
  name: "v0/resnet_v15/conv19/batchnorm19/beta"
  op: "VariableV2"
  attr {
    key: "_class"
    value {
      list {
        s: "loc:@v0/resnet_v15/conv19/batchnorm19/beta"
      }
    }
  }
  attr {
    key: "container"
    value {
      s: ""
    }
  }
  attr {
    key: "dtype"
    value {
      type: DT_FLOAT
    }
  }
  attr {
    key: "shape"
    value {
      shape {
        dim {
          size: 128
        }
      }
    }
  }
  attr {
    key: "shared_name"
    value {
      s: ""
    }
  }
}
node {
  name: "v0/resnet_v15/conv19/batchnorm19/beta/read"
  op: "Identity"
  input: "v0/resnet_v15/conv19/batchnorm19/beta"
  attr {
    key: "T"
    value {
      type: DT_FLOAT
    }
  }
  attr {
    key: "_class"
    value {
      list {
        s: "loc:@v0/resnet_v15/conv19/batchnorm19/beta"
      }
    }
  }
}
node {
  name: "v0/resnet_v15/conv19/batchnorm19/moving_mean"
  op: "VariableV2"
  attr {
    key: "_class"
    value {
      list {
        s: "loc:@v0/resnet_v15/conv19/batchnorm19/moving_mean"
      }
    }
  }
  attr {
    key: "container"
    value {
      s: ""
    }
  }
  attr {
    key: "dtype"
    value {
      type: DT_FLOAT
    }
  }
  attr {
    key: "shape"
    value {
      shape {
        dim {
          size: 128
        }
      }
    }
  }
  attr {
    key: "shared_name"
    value {
      s: ""
    }
  }
}
node {
  name: "v0/resnet_v15/conv19/batchnorm19/moving_mean/read"
  op: "Identity"
  input: "v0/resnet_v15/conv19/batchnorm19/moving_mean"
  attr {
    key: "T"
    value {
      type: DT_FLOAT
    }
  }
  attr {
    key: "_class"
    value {
      list {
        s: "loc:@v0/resnet_v15/conv19/batchnorm19/moving_mean"
      }
    }
  }
}
node {
  name: "v0/resnet_v15/conv19/batchnorm19/moving_variance"
  op: "VariableV2"
  attr {
    key: "_class"
    value {
      list {
        s: "loc:@v0/resnet_v15/conv19/batchnorm19/moving_variance"
      }
    }
  }
  attr {
    key: "container"
    value {
      s: ""
    }
  }
  attr {
    key: "dtype"
    value {
      type: DT_FLOAT
    }
  }
  attr {
    key: "shape"
    value {
      shape {
        dim {
          size: 128
        }
      }
    }
  }
  attr {
    key: "shared_name"
    value {
      s: ""
    }
  }
}
node {
  name: "v0/resnet_v15/conv19/batchnorm19/moving_variance/read"
  op: "Identity"
  input: "v0/resnet_v15/conv19/batchnorm19/moving_variance"
  attr {
    key: "T"
    value {
      type: DT_FLOAT
    }
  }
  attr {
    key: "_class"
    value {
      list {
        s: "loc:@v0/resnet_v15/conv19/batchnorm19/moving_variance"
      }
    }
  }
}
node {
  name: "v0/resnet_v15/conv19/batchnorm19/FusedBatchNorm"
  op: "FusedBatchNorm"
  input: "v0/resnet_v15/conv19/conv2d/Conv2D"
  input: "v0/resnet_v15/conv19/batchnorm19/gamma/read"
  input: "v0/resnet_v15/conv19/batchnorm19/beta/read"
  input: "v0/resnet_v15/conv19/batchnorm19/moving_mean/read"
  input: "v0/resnet_v15/conv19/batchnorm19/moving_variance/read"
  attr {
    key: "T"
    value {
      type: DT_FLOAT
    }
  }
  attr {
    key: "data_format"
    value {
      s: "NHWC"
    }
  }
  attr {
    key: "epsilon"
    value {
      f: 1.00099996416e-05
    }
  }
  attr {
    key: "is_training"
    value {
      b: false
    }
  }
}
node {
  name: "v0/resnet_v15/conv19/Relu"
  op: "Relu"
  input: "v0/resnet_v15/conv19/batchnorm19/FusedBatchNorm"
  attr {
    key: "T"
    value {
      type: DT_FLOAT
    }
  }
}
node {
  name: "v0/resnet_v15/conv20/conv2d/kernel"
  op: "VariableV2"
  attr {
    key: "_class"
    value {
      list {
        s: "loc:@v0/resnet_v15/conv20/conv2d/kernel"
      }
    }
  }
  attr {
    key: "container"
    value {
      s: ""
    }
  }
  attr {
    key: "dtype"
    value {
      type: DT_FLOAT
    }
  }
  attr {
    key: "shape"
    value {
      shape {
        dim {
          size: 1
        }
        dim {
          size: 1
        }
        dim {
          size: 128
        }
        dim {
          size: 512
        }
      }
    }
  }
  attr {
    key: "shared_name"
    value {
      s: ""
    }
  }
}
node {
  name: "v0/resnet_v15/conv20/conv2d/kernel/read"
  op: "Identity"
  input: "v0/resnet_v15/conv20/conv2d/kernel"
  attr {
    key: "T"
    value {
      type: DT_FLOAT
    }
  }
  attr {
    key: "_class"
    value {
      list {
        s: "loc:@v0/resnet_v15/conv20/conv2d/kernel"
      }
    }
  }
}
node {
  name: "v0/resnet_v15/conv20/conv2d/Conv2D"
  op: "Conv2D"
  input: "v0/resnet_v15/conv19/Relu"
  input: "v0/resnet_v15/conv20/conv2d/kernel/read"
  attr {
    key: "T"
    value {
      type: DT_FLOAT
    }
  }
  attr {
    key: "data_format"
    value {
      s: "NHWC"
    }
  }
  attr {
    key: "dilations"
    value {
      list {
        i: 1
        i: 1
        i: 1
        i: 1
      }
    }
  }
  attr {
    key: "padding"
    value {
      s: "SAME"
    }
  }
  attr {
    key: "strides"
    value {
      list {
        i: 1
        i: 1
        i: 1
        i: 1
      }
    }
  }
  attr {
    key: "use_cudnn_on_gpu"
    value {
      b: true
    }
  }
}
node {
  name: "v0/resnet_v15/conv20/batchnorm20/gamma"
  op: "VariableV2"
  attr {
    key: "_class"
    value {
      list {
        s: "loc:@v0/resnet_v15/conv20/batchnorm20/gamma"
      }
    }
  }
  attr {
    key: "container"
    value {
      s: ""
    }
  }
  attr {
    key: "dtype"
    value {
      type: DT_FLOAT
    }
  }
  attr {
    key: "shape"
    value {
      shape {
        dim {
          size: 512
        }
      }
    }
  }
  attr {
    key: "shared_name"
    value {
      s: ""
    }
  }
}
node {
  name: "v0/resnet_v15/conv20/batchnorm20/gamma/read"
  op: "Identity"
  input: "v0/resnet_v15/conv20/batchnorm20/gamma"
  attr {
    key: "T"
    value {
      type: DT_FLOAT
    }
  }
  attr {
    key: "_class"
    value {
      list {
        s: "loc:@v0/resnet_v15/conv20/batchnorm20/gamma"
      }
    }
  }
}
node {
  name: "v0/resnet_v15/conv20/batchnorm20/beta"
  op: "VariableV2"
  attr {
    key: "_class"
    value {
      list {
        s: "loc:@v0/resnet_v15/conv20/batchnorm20/beta"
      }
    }
  }
  attr {
    key: "container"
    value {
      s: ""
    }
  }
  attr {
    key: "dtype"
    value {
      type: DT_FLOAT
    }
  }
  attr {
    key: "shape"
    value {
      shape {
        dim {
          size: 512
        }
      }
    }
  }
  attr {
    key: "shared_name"
    value {
      s: ""
    }
  }
}
node {
  name: "v0/resnet_v15/conv20/batchnorm20/beta/read"
  op: "Identity"
  input: "v0/resnet_v15/conv20/batchnorm20/beta"
  attr {
    key: "T"
    value {
      type: DT_FLOAT
    }
  }
  attr {
    key: "_class"
    value {
      list {
        s: "loc:@v0/resnet_v15/conv20/batchnorm20/beta"
      }
    }
  }
}
node {
  name: "v0/resnet_v15/conv20/batchnorm20/moving_mean"
  op: "VariableV2"
  attr {
    key: "_class"
    value {
      list {
        s: "loc:@v0/resnet_v15/conv20/batchnorm20/moving_mean"
      }
    }
  }
  attr {
    key: "container"
    value {
      s: ""
    }
  }
  attr {
    key: "dtype"
    value {
      type: DT_FLOAT
    }
  }
  attr {
    key: "shape"
    value {
      shape {
        dim {
          size: 512
        }
      }
    }
  }
  attr {
    key: "shared_name"
    value {
      s: ""
    }
  }
}
node {
  name: "v0/resnet_v15/conv20/batchnorm20/moving_mean/read"
  op: "Identity"
  input: "v0/resnet_v15/conv20/batchnorm20/moving_mean"
  attr {
    key: "T"
    value {
      type: DT_FLOAT
    }
  }
  attr {
    key: "_class"
    value {
      list {
        s: "loc:@v0/resnet_v15/conv20/batchnorm20/moving_mean"
      }
    }
  }
}
node {
  name: "v0/resnet_v15/conv20/batchnorm20/moving_variance"
  op: "VariableV2"
  attr {
    key: "_class"
    value {
      list {
        s: "loc:@v0/resnet_v15/conv20/batchnorm20/moving_variance"
      }
    }
  }
  attr {
    key: "container"
    value {
      s: ""
    }
  }
  attr {
    key: "dtype"
    value {
      type: DT_FLOAT
    }
  }
  attr {
    key: "shape"
    value {
      shape {
        dim {
          size: 512
        }
      }
    }
  }
  attr {
    key: "shared_name"
    value {
      s: ""
    }
  }
}
node {
  name: "v0/resnet_v15/conv20/batchnorm20/moving_variance/read"
  op: "Identity"
  input: "v0/resnet_v15/conv20/batchnorm20/moving_variance"
  attr {
    key: "T"
    value {
      type: DT_FLOAT
    }
  }
  attr {
    key: "_class"
    value {
      list {
        s: "loc:@v0/resnet_v15/conv20/batchnorm20/moving_variance"
      }
    }
  }
}
node {
  name: "v0/resnet_v15/conv20/batchnorm20/FusedBatchNorm"
  op: "FusedBatchNorm"
  input: "v0/resnet_v15/conv20/conv2d/Conv2D"
  input: "v0/resnet_v15/conv20/batchnorm20/gamma/read"
  input: "v0/resnet_v15/conv20/batchnorm20/beta/read"
  input: "v0/resnet_v15/conv20/batchnorm20/moving_mean/read"
  input: "v0/resnet_v15/conv20/batchnorm20/moving_variance/read"
  attr {
    key: "T"
    value {
      type: DT_FLOAT
    }
  }
  attr {
    key: "data_format"
    value {
      s: "NHWC"
    }
  }
  attr {
    key: "epsilon"
    value {
      f: 1.00099996416e-05
    }
  }
  attr {
    key: "is_training"
    value {
      b: false
    }
  }
}
node {
  name: "v0/resnet_v15/AddN"
  op: "AddN"
  input: "v0/resnet_v14/Relu"
  input: "v0/resnet_v15/conv20/batchnorm20/FusedBatchNorm"
  attr {
    key: "N"
    value {
      i: 2
    }
  }
  attr {
    key: "T"
    value {
      type: DT_FLOAT
    }
  }
}
node {
  name: "v0/resnet_v15/Relu"
  op: "Relu"
  input: "v0/resnet_v15/AddN"
  attr {
    key: "T"
    value {
      type: DT_FLOAT
    }
  }
}
node {
  name: "v0/resnet_v16/conv21/conv2d/kernel"
  op: "VariableV2"
  attr {
    key: "_class"
    value {
      list {
        s: "loc:@v0/resnet_v16/conv21/conv2d/kernel"
      }
    }
  }
  attr {
    key: "container"
    value {
      s: ""
    }
  }
  attr {
    key: "dtype"
    value {
      type: DT_FLOAT
    }
  }
  attr {
    key: "shape"
    value {
      shape {
        dim {
          size: 1
        }
        dim {
          size: 1
        }
        dim {
          size: 512
        }
        dim {
          size: 128
        }
      }
    }
  }
  attr {
    key: "shared_name"
    value {
      s: ""
    }
  }
}
node {
  name: "v0/resnet_v16/conv21/conv2d/kernel/read"
  op: "Identity"
  input: "v0/resnet_v16/conv21/conv2d/kernel"
  attr {
    key: "T"
    value {
      type: DT_FLOAT
    }
  }
  attr {
    key: "_class"
    value {
      list {
        s: "loc:@v0/resnet_v16/conv21/conv2d/kernel"
      }
    }
  }
}
node {
  name: "v0/resnet_v16/conv21/conv2d/Conv2D"
  op: "Conv2D"
  input: "v0/resnet_v15/Relu"
  input: "v0/resnet_v16/conv21/conv2d/kernel/read"
  attr {
    key: "T"
    value {
      type: DT_FLOAT
    }
  }
  attr {
    key: "data_format"
    value {
      s: "NHWC"
    }
  }
  attr {
    key: "dilations"
    value {
      list {
        i: 1
        i: 1
        i: 1
        i: 1
      }
    }
  }
  attr {
    key: "padding"
    value {
      s: "SAME"
    }
  }
  attr {
    key: "strides"
    value {
      list {
        i: 1
        i: 1
        i: 1
        i: 1
      }
    }
  }
  attr {
    key: "use_cudnn_on_gpu"
    value {
      b: true
    }
  }
}
node {
  name: "v0/resnet_v16/conv21/batchnorm21/gamma"
  op: "VariableV2"
  attr {
    key: "_class"
    value {
      list {
        s: "loc:@v0/resnet_v16/conv21/batchnorm21/gamma"
      }
    }
  }
  attr {
    key: "container"
    value {
      s: ""
    }
  }
  attr {
    key: "dtype"
    value {
      type: DT_FLOAT
    }
  }
  attr {
    key: "shape"
    value {
      shape {
        dim {
          size: 128
        }
      }
    }
  }
  attr {
    key: "shared_name"
    value {
      s: ""
    }
  }
}
node {
  name: "v0/resnet_v16/conv21/batchnorm21/gamma/read"
  op: "Identity"
  input: "v0/resnet_v16/conv21/batchnorm21/gamma"
  attr {
    key: "T"
    value {
      type: DT_FLOAT
    }
  }
  attr {
    key: "_class"
    value {
      list {
        s: "loc:@v0/resnet_v16/conv21/batchnorm21/gamma"
      }
    }
  }
}
node {
  name: "v0/resnet_v16/conv21/batchnorm21/beta"
  op: "VariableV2"
  attr {
    key: "_class"
    value {
      list {
        s: "loc:@v0/resnet_v16/conv21/batchnorm21/beta"
      }
    }
  }
  attr {
    key: "container"
    value {
      s: ""
    }
  }
  attr {
    key: "dtype"
    value {
      type: DT_FLOAT
    }
  }
  attr {
    key: "shape"
    value {
      shape {
        dim {
          size: 128
        }
      }
    }
  }
  attr {
    key: "shared_name"
    value {
      s: ""
    }
  }
}
node {
  name: "v0/resnet_v16/conv21/batchnorm21/beta/read"
  op: "Identity"
  input: "v0/resnet_v16/conv21/batchnorm21/beta"
  attr {
    key: "T"
    value {
      type: DT_FLOAT
    }
  }
  attr {
    key: "_class"
    value {
      list {
        s: "loc:@v0/resnet_v16/conv21/batchnorm21/beta"
      }
    }
  }
}
node {
  name: "v0/resnet_v16/conv21/batchnorm21/moving_mean"
  op: "VariableV2"
  attr {
    key: "_class"
    value {
      list {
        s: "loc:@v0/resnet_v16/conv21/batchnorm21/moving_mean"
      }
    }
  }
  attr {
    key: "container"
    value {
      s: ""
    }
  }
  attr {
    key: "dtype"
    value {
      type: DT_FLOAT
    }
  }
  attr {
    key: "shape"
    value {
      shape {
        dim {
          size: 128
        }
      }
    }
  }
  attr {
    key: "shared_name"
    value {
      s: ""
    }
  }
}
node {
  name: "v0/resnet_v16/conv21/batchnorm21/moving_mean/read"
  op: "Identity"
  input: "v0/resnet_v16/conv21/batchnorm21/moving_mean"
  attr {
    key: "T"
    value {
      type: DT_FLOAT
    }
  }
  attr {
    key: "_class"
    value {
      list {
        s: "loc:@v0/resnet_v16/conv21/batchnorm21/moving_mean"
      }
    }
  }
}
node {
  name: "v0/resnet_v16/conv21/batchnorm21/moving_variance"
  op: "VariableV2"
  attr {
    key: "_class"
    value {
      list {
        s: "loc:@v0/resnet_v16/conv21/batchnorm21/moving_variance"
      }
    }
  }
  attr {
    key: "container"
    value {
      s: ""
    }
  }
  attr {
    key: "dtype"
    value {
      type: DT_FLOAT
    }
  }
  attr {
    key: "shape"
    value {
      shape {
        dim {
          size: 128
        }
      }
    }
  }
  attr {
    key: "shared_name"
    value {
      s: ""
    }
  }
}
node {
  name: "v0/resnet_v16/conv21/batchnorm21/moving_variance/read"
  op: "Identity"
  input: "v0/resnet_v16/conv21/batchnorm21/moving_variance"
  attr {
    key: "T"
    value {
      type: DT_FLOAT
    }
  }
  attr {
    key: "_class"
    value {
      list {
        s: "loc:@v0/resnet_v16/conv21/batchnorm21/moving_variance"
      }
    }
  }
}
node {
  name: "v0/resnet_v16/conv21/batchnorm21/FusedBatchNorm"
  op: "FusedBatchNorm"
  input: "v0/resnet_v16/conv21/conv2d/Conv2D"
  input: "v0/resnet_v16/conv21/batchnorm21/gamma/read"
  input: "v0/resnet_v16/conv21/batchnorm21/beta/read"
  input: "v0/resnet_v16/conv21/batchnorm21/moving_mean/read"
  input: "v0/resnet_v16/conv21/batchnorm21/moving_variance/read"
  attr {
    key: "T"
    value {
      type: DT_FLOAT
    }
  }
  attr {
    key: "data_format"
    value {
      s: "NHWC"
    }
  }
  attr {
    key: "epsilon"
    value {
      f: 1.00099996416e-05
    }
  }
  attr {
    key: "is_training"
    value {
      b: false
    }
  }
}
node {
  name: "v0/resnet_v16/conv21/Relu"
  op: "Relu"
  input: "v0/resnet_v16/conv21/batchnorm21/FusedBatchNorm"
  attr {
    key: "T"
    value {
      type: DT_FLOAT
    }
  }
}
node {
  name: "v0/resnet_v16/conv22/conv2d/kernel"
  op: "VariableV2"
  attr {
    key: "_class"
    value {
      list {
        s: "loc:@v0/resnet_v16/conv22/conv2d/kernel"
      }
    }
  }
  attr {
    key: "container"
    value {
      s: ""
    }
  }
  attr {
    key: "dtype"
    value {
      type: DT_FLOAT
    }
  }
  attr {
    key: "shape"
    value {
      shape {
        dim {
          size: 3
        }
        dim {
          size: 3
        }
        dim {
          size: 128
        }
        dim {
          size: 128
        }
      }
    }
  }
  attr {
    key: "shared_name"
    value {
      s: ""
    }
  }
}
node {
  name: "v0/resnet_v16/conv22/conv2d/kernel/read"
  op: "Identity"
  input: "v0/resnet_v16/conv22/conv2d/kernel"
  attr {
    key: "T"
    value {
      type: DT_FLOAT
    }
  }
  attr {
    key: "_class"
    value {
      list {
        s: "loc:@v0/resnet_v16/conv22/conv2d/kernel"
      }
    }
  }
}
node {
  name: "v0/resnet_v16/conv22/conv2d/Conv2D"
  op: "Conv2D"
  input: "v0/resnet_v16/conv21/Relu"
  input: "v0/resnet_v16/conv22/conv2d/kernel/read"
  attr {
    key: "T"
    value {
      type: DT_FLOAT
    }
  }
  attr {
    key: "data_format"
    value {
      s: "NHWC"
    }
  }
  attr {
    key: "dilations"
    value {
      list {
        i: 1
        i: 1
        i: 1
        i: 1
      }
    }
  }
  attr {
    key: "padding"
    value {
      s: "SAME"
    }
  }
  attr {
    key: "strides"
    value {
      list {
        i: 1
        i: 1
        i: 1
        i: 1
      }
    }
  }
  attr {
    key: "use_cudnn_on_gpu"
    value {
      b: true
    }
  }
}
node {
  name: "v0/resnet_v16/conv22/batchnorm22/gamma"
  op: "VariableV2"
  attr {
    key: "_class"
    value {
      list {
        s: "loc:@v0/resnet_v16/conv22/batchnorm22/gamma"
      }
    }
  }
  attr {
    key: "container"
    value {
      s: ""
    }
  }
  attr {
    key: "dtype"
    value {
      type: DT_FLOAT
    }
  }
  attr {
    key: "shape"
    value {
      shape {
        dim {
          size: 128
        }
      }
    }
  }
  attr {
    key: "shared_name"
    value {
      s: ""
    }
  }
}
node {
  name: "v0/resnet_v16/conv22/batchnorm22/gamma/read"
  op: "Identity"
  input: "v0/resnet_v16/conv22/batchnorm22/gamma"
  attr {
    key: "T"
    value {
      type: DT_FLOAT
    }
  }
  attr {
    key: "_class"
    value {
      list {
        s: "loc:@v0/resnet_v16/conv22/batchnorm22/gamma"
      }
    }
  }
}
node {
  name: "v0/resnet_v16/conv22/batchnorm22/beta"
  op: "VariableV2"
  attr {
    key: "_class"
    value {
      list {
        s: "loc:@v0/resnet_v16/conv22/batchnorm22/beta"
      }
    }
  }
  attr {
    key: "container"
    value {
      s: ""
    }
  }
  attr {
    key: "dtype"
    value {
      type: DT_FLOAT
    }
  }
  attr {
    key: "shape"
    value {
      shape {
        dim {
          size: 128
        }
      }
    }
  }
  attr {
    key: "shared_name"
    value {
      s: ""
    }
  }
}
node {
  name: "v0/resnet_v16/conv22/batchnorm22/beta/read"
  op: "Identity"
  input: "v0/resnet_v16/conv22/batchnorm22/beta"
  attr {
    key: "T"
    value {
      type: DT_FLOAT
    }
  }
  attr {
    key: "_class"
    value {
      list {
        s: "loc:@v0/resnet_v16/conv22/batchnorm22/beta"
      }
    }
  }
}
node {
  name: "v0/resnet_v16/conv22/batchnorm22/moving_mean"
  op: "VariableV2"
  attr {
    key: "_class"
    value {
      list {
        s: "loc:@v0/resnet_v16/conv22/batchnorm22/moving_mean"
      }
    }
  }
  attr {
    key: "container"
    value {
      s: ""
    }
  }
  attr {
    key: "dtype"
    value {
      type: DT_FLOAT
    }
  }
  attr {
    key: "shape"
    value {
      shape {
        dim {
          size: 128
        }
      }
    }
  }
  attr {
    key: "shared_name"
    value {
      s: ""
    }
  }
}
node {
  name: "v0/resnet_v16/conv22/batchnorm22/moving_mean/read"
  op: "Identity"
  input: "v0/resnet_v16/conv22/batchnorm22/moving_mean"
  attr {
    key: "T"
    value {
      type: DT_FLOAT
    }
  }
  attr {
    key: "_class"
    value {
      list {
        s: "loc:@v0/resnet_v16/conv22/batchnorm22/moving_mean"
      }
    }
  }
}
node {
  name: "v0/resnet_v16/conv22/batchnorm22/moving_variance"
  op: "VariableV2"
  attr {
    key: "_class"
    value {
      list {
        s: "loc:@v0/resnet_v16/conv22/batchnorm22/moving_variance"
      }
    }
  }
  attr {
    key: "container"
    value {
      s: ""
    }
  }
  attr {
    key: "dtype"
    value {
      type: DT_FLOAT
    }
  }
  attr {
    key: "shape"
    value {
      shape {
        dim {
          size: 128
        }
      }
    }
  }
  attr {
    key: "shared_name"
    value {
      s: ""
    }
  }
}
node {
  name: "v0/resnet_v16/conv22/batchnorm22/moving_variance/read"
  op: "Identity"
  input: "v0/resnet_v16/conv22/batchnorm22/moving_variance"
  attr {
    key: "T"
    value {
      type: DT_FLOAT
    }
  }
  attr {
    key: "_class"
    value {
      list {
        s: "loc:@v0/resnet_v16/conv22/batchnorm22/moving_variance"
      }
    }
  }
}
node {
  name: "v0/resnet_v16/conv22/batchnorm22/FusedBatchNorm"
  op: "FusedBatchNorm"
  input: "v0/resnet_v16/conv22/conv2d/Conv2D"
  input: "v0/resnet_v16/conv22/batchnorm22/gamma/read"
  input: "v0/resnet_v16/conv22/batchnorm22/beta/read"
  input: "v0/resnet_v16/conv22/batchnorm22/moving_mean/read"
  input: "v0/resnet_v16/conv22/batchnorm22/moving_variance/read"
  attr {
    key: "T"
    value {
      type: DT_FLOAT
    }
  }
  attr {
    key: "data_format"
    value {
      s: "NHWC"
    }
  }
  attr {
    key: "epsilon"
    value {
      f: 1.00099996416e-05
    }
  }
  attr {
    key: "is_training"
    value {
      b: false
    }
  }
}
node {
  name: "v0/resnet_v16/conv22/Relu"
  op: "Relu"
  input: "v0/resnet_v16/conv22/batchnorm22/FusedBatchNorm"
  attr {
    key: "T"
    value {
      type: DT_FLOAT
    }
  }
}
node {
  name: "v0/resnet_v16/conv23/conv2d/kernel"
  op: "VariableV2"
  attr {
    key: "_class"
    value {
      list {
        s: "loc:@v0/resnet_v16/conv23/conv2d/kernel"
      }
    }
  }
  attr {
    key: "container"
    value {
      s: ""
    }
  }
  attr {
    key: "dtype"
    value {
      type: DT_FLOAT
    }
  }
  attr {
    key: "shape"
    value {
      shape {
        dim {
          size: 1
        }
        dim {
          size: 1
        }
        dim {
          size: 128
        }
        dim {
          size: 512
        }
      }
    }
  }
  attr {
    key: "shared_name"
    value {
      s: ""
    }
  }
}
node {
  name: "v0/resnet_v16/conv23/conv2d/kernel/read"
  op: "Identity"
  input: "v0/resnet_v16/conv23/conv2d/kernel"
  attr {
    key: "T"
    value {
      type: DT_FLOAT
    }
  }
  attr {
    key: "_class"
    value {
      list {
        s: "loc:@v0/resnet_v16/conv23/conv2d/kernel"
      }
    }
  }
}
node {
  name: "v0/resnet_v16/conv23/conv2d/Conv2D"
  op: "Conv2D"
  input: "v0/resnet_v16/conv22/Relu"
  input: "v0/resnet_v16/conv23/conv2d/kernel/read"
  attr {
    key: "T"
    value {
      type: DT_FLOAT
    }
  }
  attr {
    key: "data_format"
    value {
      s: "NHWC"
    }
  }
  attr {
    key: "dilations"
    value {
      list {
        i: 1
        i: 1
        i: 1
        i: 1
      }
    }
  }
  attr {
    key: "padding"
    value {
      s: "SAME"
    }
  }
  attr {
    key: "strides"
    value {
      list {
        i: 1
        i: 1
        i: 1
        i: 1
      }
    }
  }
  attr {
    key: "use_cudnn_on_gpu"
    value {
      b: true
    }
  }
}
node {
  name: "v0/resnet_v16/conv23/batchnorm23/gamma"
  op: "VariableV2"
  attr {
    key: "_class"
    value {
      list {
        s: "loc:@v0/resnet_v16/conv23/batchnorm23/gamma"
      }
    }
  }
  attr {
    key: "container"
    value {
      s: ""
    }
  }
  attr {
    key: "dtype"
    value {
      type: DT_FLOAT
    }
  }
  attr {
    key: "shape"
    value {
      shape {
        dim {
          size: 512
        }
      }
    }
  }
  attr {
    key: "shared_name"
    value {
      s: ""
    }
  }
}
node {
  name: "v0/resnet_v16/conv23/batchnorm23/gamma/read"
  op: "Identity"
  input: "v0/resnet_v16/conv23/batchnorm23/gamma"
  attr {
    key: "T"
    value {
      type: DT_FLOAT
    }
  }
  attr {
    key: "_class"
    value {
      list {
        s: "loc:@v0/resnet_v16/conv23/batchnorm23/gamma"
      }
    }
  }
}
node {
  name: "v0/resnet_v16/conv23/batchnorm23/beta"
  op: "VariableV2"
  attr {
    key: "_class"
    value {
      list {
        s: "loc:@v0/resnet_v16/conv23/batchnorm23/beta"
      }
    }
  }
  attr {
    key: "container"
    value {
      s: ""
    }
  }
  attr {
    key: "dtype"
    value {
      type: DT_FLOAT
    }
  }
  attr {
    key: "shape"
    value {
      shape {
        dim {
          size: 512
        }
      }
    }
  }
  attr {
    key: "shared_name"
    value {
      s: ""
    }
  }
}
node {
  name: "v0/resnet_v16/conv23/batchnorm23/beta/read"
  op: "Identity"
  input: "v0/resnet_v16/conv23/batchnorm23/beta"
  attr {
    key: "T"
    value {
      type: DT_FLOAT
    }
  }
  attr {
    key: "_class"
    value {
      list {
        s: "loc:@v0/resnet_v16/conv23/batchnorm23/beta"
      }
    }
  }
}
node {
  name: "v0/resnet_v16/conv23/batchnorm23/moving_mean"
  op: "VariableV2"
  attr {
    key: "_class"
    value {
      list {
        s: "loc:@v0/resnet_v16/conv23/batchnorm23/moving_mean"
      }
    }
  }
  attr {
    key: "container"
    value {
      s: ""
    }
  }
  attr {
    key: "dtype"
    value {
      type: DT_FLOAT
    }
  }
  attr {
    key: "shape"
    value {
      shape {
        dim {
          size: 512
        }
      }
    }
  }
  attr {
    key: "shared_name"
    value {
      s: ""
    }
  }
}
node {
  name: "v0/resnet_v16/conv23/batchnorm23/moving_mean/read"
  op: "Identity"
  input: "v0/resnet_v16/conv23/batchnorm23/moving_mean"
  attr {
    key: "T"
    value {
      type: DT_FLOAT
    }
  }
  attr {
    key: "_class"
    value {
      list {
        s: "loc:@v0/resnet_v16/conv23/batchnorm23/moving_mean"
      }
    }
  }
}
node {
  name: "v0/resnet_v16/conv23/batchnorm23/moving_variance"
  op: "VariableV2"
  attr {
    key: "_class"
    value {
      list {
        s: "loc:@v0/resnet_v16/conv23/batchnorm23/moving_variance"
      }
    }
  }
  attr {
    key: "container"
    value {
      s: ""
    }
  }
  attr {
    key: "dtype"
    value {
      type: DT_FLOAT
    }
  }
  attr {
    key: "shape"
    value {
      shape {
        dim {
          size: 512
        }
      }
    }
  }
  attr {
    key: "shared_name"
    value {
      s: ""
    }
  }
}
node {
  name: "v0/resnet_v16/conv23/batchnorm23/moving_variance/read"
  op: "Identity"
  input: "v0/resnet_v16/conv23/batchnorm23/moving_variance"
  attr {
    key: "T"
    value {
      type: DT_FLOAT
    }
  }
  attr {
    key: "_class"
    value {
      list {
        s: "loc:@v0/resnet_v16/conv23/batchnorm23/moving_variance"
      }
    }
  }
}
node {
  name: "v0/resnet_v16/conv23/batchnorm23/FusedBatchNorm"
  op: "FusedBatchNorm"
  input: "v0/resnet_v16/conv23/conv2d/Conv2D"
  input: "v0/resnet_v16/conv23/batchnorm23/gamma/read"
  input: "v0/resnet_v16/conv23/batchnorm23/beta/read"
  input: "v0/resnet_v16/conv23/batchnorm23/moving_mean/read"
  input: "v0/resnet_v16/conv23/batchnorm23/moving_variance/read"
  attr {
    key: "T"
    value {
      type: DT_FLOAT
    }
  }
  attr {
    key: "data_format"
    value {
      s: "NHWC"
    }
  }
  attr {
    key: "epsilon"
    value {
      f: 1.00099996416e-05
    }
  }
  attr {
    key: "is_training"
    value {
      b: false
    }
  }
}
node {
  name: "v0/resnet_v16/AddN"
  op: "AddN"
  input: "v0/resnet_v15/Relu"
  input: "v0/resnet_v16/conv23/batchnorm23/FusedBatchNorm"
  attr {
    key: "N"
    value {
      i: 2
    }
  }
  attr {
    key: "T"
    value {
      type: DT_FLOAT
    }
  }
}
node {
  name: "v0/resnet_v16/Relu"
  op: "Relu"
  input: "v0/resnet_v16/AddN"
  attr {
    key: "T"
    value {
      type: DT_FLOAT
    }
  }
}
node {
  name: "v0/resnet_v17/conv24/conv2d/kernel"
  op: "VariableV2"
  attr {
    key: "_class"
    value {
      list {
        s: "loc:@v0/resnet_v17/conv24/conv2d/kernel"
      }
    }
  }
  attr {
    key: "container"
    value {
      s: ""
    }
  }
  attr {
    key: "dtype"
    value {
      type: DT_FLOAT
    }
  }
  attr {
    key: "shape"
    value {
      shape {
        dim {
          size: 1
        }
        dim {
          size: 1
        }
        dim {
          size: 512
        }
        dim {
          size: 1024
        }
      }
    }
  }
  attr {
    key: "shared_name"
    value {
      s: ""
    }
  }
}
node {
  name: "v0/resnet_v17/conv24/conv2d/kernel/read"
  op: "Identity"
  input: "v0/resnet_v17/conv24/conv2d/kernel"
  attr {
    key: "T"
    value {
      type: DT_FLOAT
    }
  }
  attr {
    key: "_class"
    value {
      list {
        s: "loc:@v0/resnet_v17/conv24/conv2d/kernel"
      }
    }
  }
}
node {
  name: "v0/resnet_v17/conv24/conv2d/Conv2D"
  op: "Conv2D"
  input: "v0/resnet_v16/Relu"
  input: "v0/resnet_v17/conv24/conv2d/kernel/read"
  attr {
    key: "T"
    value {
      type: DT_FLOAT
    }
  }
  attr {
    key: "data_format"
    value {
      s: "NHWC"
    }
  }
  attr {
    key: "dilations"
    value {
      list {
        i: 1
        i: 1
        i: 1
        i: 1
      }
    }
  }
  attr {
    key: "padding"
    value {
      s: "SAME"
    }
  }
  attr {
    key: "strides"
    value {
      list {
        i: 1
        i: 2
        i: 2
        i: 1
      }
    }
  }
  attr {
    key: "use_cudnn_on_gpu"
    value {
      b: true
    }
  }
}
node {
  name: "v0/resnet_v17/conv24/batchnorm24/gamma"
  op: "VariableV2"
  attr {
    key: "_class"
    value {
      list {
        s: "loc:@v0/resnet_v17/conv24/batchnorm24/gamma"
      }
    }
  }
  attr {
    key: "container"
    value {
      s: ""
    }
  }
  attr {
    key: "dtype"
    value {
      type: DT_FLOAT
    }
  }
  attr {
    key: "shape"
    value {
      shape {
        dim {
          size: 1024
        }
      }
    }
  }
  attr {
    key: "shared_name"
    value {
      s: ""
    }
  }
}
node {
  name: "v0/resnet_v17/conv24/batchnorm24/gamma/read"
  op: "Identity"
  input: "v0/resnet_v17/conv24/batchnorm24/gamma"
  attr {
    key: "T"
    value {
      type: DT_FLOAT
    }
  }
  attr {
    key: "_class"
    value {
      list {
        s: "loc:@v0/resnet_v17/conv24/batchnorm24/gamma"
      }
    }
  }
}
node {
  name: "v0/resnet_v17/conv24/batchnorm24/beta"
  op: "VariableV2"
  attr {
    key: "_class"
    value {
      list {
        s: "loc:@v0/resnet_v17/conv24/batchnorm24/beta"
      }
    }
  }
  attr {
    key: "container"
    value {
      s: ""
    }
  }
  attr {
    key: "dtype"
    value {
      type: DT_FLOAT
    }
  }
  attr {
    key: "shape"
    value {
      shape {
        dim {
          size: 1024
        }
      }
    }
  }
  attr {
    key: "shared_name"
    value {
      s: ""
    }
  }
}
node {
  name: "v0/resnet_v17/conv24/batchnorm24/beta/read"
  op: "Identity"
  input: "v0/resnet_v17/conv24/batchnorm24/beta"
  attr {
    key: "T"
    value {
      type: DT_FLOAT
    }
  }
  attr {
    key: "_class"
    value {
      list {
        s: "loc:@v0/resnet_v17/conv24/batchnorm24/beta"
      }
    }
  }
}
node {
  name: "v0/resnet_v17/conv24/batchnorm24/moving_mean"
  op: "VariableV2"
  attr {
    key: "_class"
    value {
      list {
        s: "loc:@v0/resnet_v17/conv24/batchnorm24/moving_mean"
      }
    }
  }
  attr {
    key: "container"
    value {
      s: ""
    }
  }
  attr {
    key: "dtype"
    value {
      type: DT_FLOAT
    }
  }
  attr {
    key: "shape"
    value {
      shape {
        dim {
          size: 1024
        }
      }
    }
  }
  attr {
    key: "shared_name"
    value {
      s: ""
    }
  }
}
node {
  name: "v0/resnet_v17/conv24/batchnorm24/moving_mean/read"
  op: "Identity"
  input: "v0/resnet_v17/conv24/batchnorm24/moving_mean"
  attr {
    key: "T"
    value {
      type: DT_FLOAT
    }
  }
  attr {
    key: "_class"
    value {
      list {
        s: "loc:@v0/resnet_v17/conv24/batchnorm24/moving_mean"
      }
    }
  }
}
node {
  name: "v0/resnet_v17/conv24/batchnorm24/moving_variance"
  op: "VariableV2"
  attr {
    key: "_class"
    value {
      list {
        s: "loc:@v0/resnet_v17/conv24/batchnorm24/moving_variance"
      }
    }
  }
  attr {
    key: "container"
    value {
      s: ""
    }
  }
  attr {
    key: "dtype"
    value {
      type: DT_FLOAT
    }
  }
  attr {
    key: "shape"
    value {
      shape {
        dim {
          size: 1024
        }
      }
    }
  }
  attr {
    key: "shared_name"
    value {
      s: ""
    }
  }
}
node {
  name: "v0/resnet_v17/conv24/batchnorm24/moving_variance/read"
  op: "Identity"
  input: "v0/resnet_v17/conv24/batchnorm24/moving_variance"
  attr {
    key: "T"
    value {
      type: DT_FLOAT
    }
  }
  attr {
    key: "_class"
    value {
      list {
        s: "loc:@v0/resnet_v17/conv24/batchnorm24/moving_variance"
      }
    }
  }
}
node {
  name: "v0/resnet_v17/conv24/batchnorm24/FusedBatchNorm"
  op: "FusedBatchNorm"
  input: "v0/resnet_v17/conv24/conv2d/Conv2D"
  input: "v0/resnet_v17/conv24/batchnorm24/gamma/read"
  input: "v0/resnet_v17/conv24/batchnorm24/beta/read"
  input: "v0/resnet_v17/conv24/batchnorm24/moving_mean/read"
  input: "v0/resnet_v17/conv24/batchnorm24/moving_variance/read"
  attr {
    key: "T"
    value {
      type: DT_FLOAT
    }
  }
  attr {
    key: "data_format"
    value {
      s: "NHWC"
    }
  }
  attr {
    key: "epsilon"
    value {
      f: 1.00099996416e-05
    }
  }
  attr {
    key: "is_training"
    value {
      b: false
    }
  }
}
node {
  name: "v0/resnet_v17/conv25/conv2d/kernel"
  op: "VariableV2"
  attr {
    key: "_class"
    value {
      list {
        s: "loc:@v0/resnet_v17/conv25/conv2d/kernel"
      }
    }
  }
  attr {
    key: "container"
    value {
      s: ""
    }
  }
  attr {
    key: "dtype"
    value {
      type: DT_FLOAT
    }
  }
  attr {
    key: "shape"
    value {
      shape {
        dim {
          size: 1
        }
        dim {
          size: 1
        }
        dim {
          size: 512
        }
        dim {
          size: 256
        }
      }
    }
  }
  attr {
    key: "shared_name"
    value {
      s: ""
    }
  }
}
node {
  name: "v0/resnet_v17/conv25/conv2d/kernel/read"
  op: "Identity"
  input: "v0/resnet_v17/conv25/conv2d/kernel"
  attr {
    key: "T"
    value {
      type: DT_FLOAT
    }
  }
  attr {
    key: "_class"
    value {
      list {
        s: "loc:@v0/resnet_v17/conv25/conv2d/kernel"
      }
    }
  }
}
node {
  name: "v0/resnet_v17/conv25/conv2d/Conv2D"
  op: "Conv2D"
  input: "v0/resnet_v16/Relu"
  input: "v0/resnet_v17/conv25/conv2d/kernel/read"
  attr {
    key: "T"
    value {
      type: DT_FLOAT
    }
  }
  attr {
    key: "data_format"
    value {
      s: "NHWC"
    }
  }
  attr {
    key: "dilations"
    value {
…
    }
  }
  attr {
    key: "strides"
    value {
      list {
        i: 1
        i: 1
        i: 1
        i: 1
      }
    }
  }
  attr {
    key: "use_cudnn_on_gpu"
    value {
      b: true
    }
  }
}
node {
  name: "v0/resnet_v113/conv45/batchnorm45/gamma"
  op: "VariableV2"
  attr {
    key: "_class"
    value {
      list {
        s: "loc:@v0/resnet_v113/conv45/batchnorm45/gamma"
      }
    }
  }
  attr {
    key: "container"
    value {
      s: ""
    }
  }
  attr {
    key: "dtype"
    value {
      type: DT_FLOAT
    }
  }
  attr {
    key: "shape"
    value {
      shape {
        dim {
          size: 512
        }
      }
    }
  }
  attr {
    key: "shared_name"
    value {
      s: ""
    }
  }
}
node {
  name: "v0/resnet_v113/conv45/batchnorm45/gamma/read"
  op: "Identity"
  input: "v0/resnet_v113/conv45/batchnorm45/gamma"
  attr {
    key: "T"
    value {
      type: DT_FLOAT
    }
  }
  attr {
    key: "_class"
    value {
      list {
        s: "loc:@v0/resnet_v113/conv45/batchnorm45/gamma"
      }
    }
  }
}
node {
  name: "v0/resnet_v113/conv45/batchnorm45/beta"
  op: "VariableV2"
  attr {
    key: "_class"
    value {
      list {
        s: "loc:@v0/resnet_v113/conv45/batchnorm45/beta"
      }
    }
  }
  attr {
    key: "container"
    value {
      s: ""
    }
  }
  attr {
    key: "dtype"
    value {
      type: DT_FLOAT
    }
  }
  attr {
    key: "shape"
    value {
      shape {
        dim {
          size: 512
        }
      }
    }
  }
  attr {
    key: "shared_name"
    value {
      s: ""
    }
  }
}
node {
  name: "v0/resnet_v113/conv45/batchnorm45/beta/read"
  op: "Identity"
  input: "v0/resnet_v113/conv45/batchnorm45/beta"
  attr {
    key: "T"
    value {
      type: DT_FLOAT
    }
  }
  attr {
    key: "_class"
    value {
      list {
        s: "loc:@v0/resnet_v113/conv45/batchnorm45/beta"
      }
    }
  }
}
node {
  name: "v0/resnet_v113/conv45/batchnorm45/moving_mean"
  op: "VariableV2"
  attr {
    key: "_class"
    value {
      list {
        s: "loc:@v0/resnet_v113/conv45/batchnorm45/moving_mean"
      }
    }
  }
  attr {
    key: "container"
    value {
      s: ""
    }
  }
  attr {
    key: "dtype"
    value {
      type: DT_FLOAT
    }
  }
  attr {
    key: "shape"
    value {
      shape {
        dim {
          size: 512
        }
      }
    }
  }
  attr {
    key: "shared_name"
    value {
      s: ""
    }
  }
}
node {
  name: "v0/resnet_v113/conv45/batchnorm45/moving_mean/read"
  op: "Identity"
  input: "v0/resnet_v113/conv45/batchnorm45/moving_mean"
  attr {
    key: "T"
    value {
      type: DT_FLOAT
    }
  }
  attr {
    key: "_class"
    value {
      list {
        s: "loc:@v0/resnet_v113/conv45/batchnorm45/moving_mean"
      }
    }
  }
}
node {
  name: "v0/resnet_v113/conv45/batchnorm45/moving_variance"
  op: "VariableV2"
  attr {
    key: "_class"
    value {
      list {
        s: "loc:@v0/resnet_v113/conv45/batchnorm45/moving_variance"
      }
    }
  }
  attr {
    key: "container"
    value {
      s: ""
    }
  }
  attr {
    key: "dtype"
    value {
      type: DT_FLOAT
    }
  }
  attr {
    key: "shape"
    value {
      shape {
        dim {
          size: 512
        }
      }
    }
  }
  attr {
    key: "shared_name"
    value {
      s: ""
    }
  }
}
node {
  name: "v0/resnet_v113/conv45/batchnorm45/moving_variance/read"
  op: "Identity"
  input: "v0/resnet_v113/conv45/batchnorm45/moving_variance"
  attr {
    key: "T"
    value {
      type: DT_FLOAT
    }
  }
  attr {
    key: "_class"
    value {
      list {
        s: "loc:@v0/resnet_v113/conv45/batchnorm45/moving_variance"
      }
    }
  }
}
node {
  name: "v0/resnet_v113/conv45/batchnorm45/FusedBatchNorm"
  op: "FusedBatchNorm"
  input: "v0/resnet_v113/conv45/conv2d/Conv2D"
  input: "v0/resnet_v113/conv45/batchnorm45/gamma/read"
  input: "v0/resnet_v113/conv45/batchnorm45/beta/read"
  input: "v0/resnet_v113/conv45/batchnorm45/moving_mean/read"
  input: "v0/resnet_v113/conv45/batchnorm45/moving_variance/read"
  attr {
    key: "T"
    value {
      type: DT_FLOAT
    }
  }
  attr {
    key: "data_format"
    value {
      s: "NHWC"
    }
  }
  attr {
    key: "epsilon"
    value {
      f: 1.00099996416e-05
    }
  }
  attr {
    key: "is_training"
    value {
      b: false
    }
  }
}
node {
  name: "v0/resnet_v113/conv45/Relu"
  op: "Relu"
  input: "v0/resnet_v113/conv45/batchnorm45/FusedBatchNorm"
  attr {
    key: "T"
    value {
      type: DT_FLOAT
    }
  }
}
node {
  name: "v0/resnet_v113/conv46/conv2d/kernel"
  op: "VariableV2"
  attr {
    key: "_class"
    value {
      list {
        s: "loc:@v0/resnet_v113/conv46/conv2d/kernel"
      }
    }
  }
  attr {
    key: "container"
    value {
      s: ""
    }
  }
  attr {
    key: "dtype"
    value {
      type: DT_FLOAT
    }
  }
  attr {
    key: "shape"
    value {
      shape {
        dim {
          size: 1
        }
        dim {
          size: 1
        }
        dim {
          size: 512
        }
        dim {
          size: 2048
        }
      }
    }
  }
  attr {
    key: "shared_name"
    value {
      s: ""
    }
  }
}
node {
  name: "v0/resnet_v113/conv46/conv2d/kernel/read"
  op: "Identity"
  input: "v0/resnet_v113/conv46/conv2d/kernel"
  attr {
    key: "T"
    value {
      type: DT_FLOAT
    }
  }
  attr {
    key: "_class"
    value {
      list {
        s: "loc:@v0/resnet_v113/conv46/conv2d/kernel"
      }
    }
  }
}
node {
  name: "v0/resnet_v113/conv46/conv2d/Conv2D"
  op: "Conv2D"
  input: "v0/resnet_v113/conv45/Relu"
  input: "v0/resnet_v113/conv46/conv2d/kernel/read"
  attr {
    key: "T"
    value {
      type: DT_FLOAT
    }
  }
  attr {
    key: "data_format"
    value {
      s: "NHWC"
    }
  }
  attr {
    key: "dilations"
    value {
      list {
        i: 1
        i: 1
        i: 1
        i: 1
      }
    }
  }
  attr {
    key: "padding"
    value {
      s: "SAME"
    }
  }
  attr {
    key: "strides"
    value {
      list {
        i: 1
        i: 1
        i: 1
        i: 1
      }
    }
  }
  attr {
    key: "use_cudnn_on_gpu"
    value {
      b: true
    }
  }
}
node {
  name: "v0/resnet_v113/conv46/batchnorm46/gamma"
  op: "VariableV2"
  attr {
    key: "_class"
    value {
      list {
        s: "loc:@v0/resnet_v113/conv46/batchnorm46/gamma"
      }
    }
  }
  attr {
    key: "container"
    value {
      s: ""
    }
  }
  attr {
    key: "dtype"
    value {
      type: DT_FLOAT
    }
  }
  attr {
    key: "shape"
    value {
      shape {
        dim {
          size: 2048
        }
      }
    }
  }
  attr {
    key: "shared_name"
    value {
      s: ""
    }
  }
}
node {
  name: "v0/resnet_v113/conv46/batchnorm46/gamma/read"
  op: "Identity"
  input: "v0/resnet_v113/conv46/batchnorm46/gamma"
  attr {
    key: "T"
    value {
      type: DT_FLOAT
    }
  }
  attr {
    key: "_class"
    value {
      list {
        s: "loc:@v0/resnet_v113/conv46/batchnorm46/gamma"
      }
    }
  }
}
node {
  name: "v0/resnet_v113/conv46/batchnorm46/beta"
  op: "VariableV2"
  attr {
    key: "_class"
    value {
      list {
        s: "loc:@v0/resnet_v113/conv46/batchnorm46/beta"
      }
    }
  }
  attr {
    key: "container"
    value {
      s: ""
    }
  }
  attr {
    key: "dtype"
    value {
      type: DT_FLOAT
    }
  }
  attr {
    key: "shape"
    value {
      shape {
        dim {
          size: 2048
        }
      }
    }
  }
  attr {
    key: "shared_name"
    value {
      s: ""
    }
  }
}
node {
  name: "v0/resnet_v113/conv46/batchnorm46/beta/read"
  op: "Identity"
  input: "v0/resnet_v113/conv46/batchnorm46/beta"
  attr {
    key: "T"
    value {
      type: DT_FLOAT
    }
  }
  attr {
    key: "_class"
    value {
      list {
        s: "loc:@v0/resnet_v113/conv46/batchnorm46/beta"
      }
    }
  }
}
node {
  name: "v0/resnet_v113/conv46/batchnorm46/moving_mean"
  op: "VariableV2"
  attr {
    key: "_class"
    value {
      list {
        s: "loc:@v0/resnet_v113/conv46/batchnorm46/moving_mean"
      }
    }
  }
  attr {
    key: "container"
    value {
      s: ""
    }
  }
  attr {
    key: "dtype"
    value {
      type: DT_FLOAT
    }
  }
  attr {
    key: "shape"
    value {
      shape {
        dim {
          size: 2048
        }
      }
    }
  }
  attr {
    key: "shared_name"
    value {
      s: ""
    }
  }
}
node {
  name: "v0/resnet_v113/conv46/batchnorm46/moving_mean/read"
  op: "Identity"
  input: "v0/resnet_v113/conv46/batchnorm46/moving_mean"
  attr {
    key: "T"
    value {
      type: DT_FLOAT
    }
  }
  attr {
    key: "_class"
    value {
      list {
        s: "loc:@v0/resnet_v113/conv46/batchnorm46/moving_mean"
      }
    }
  }
}
node {
  name: "v0/resnet_v113/conv46/batchnorm46/moving_variance"
  op: "VariableV2"
  attr {
    key: "_class"
    value {
      list {
        s: "loc:@v0/resnet_v113/conv46/batchnorm46/moving_variance"
      }
    }
  }
  attr {
    key: "container"
    value {
      s: ""
    }
  }
  attr {
    key: "dtype"
    value {
      type: DT_FLOAT
    }
  }
  attr {
    key: "shape"
    value {
      shape {
        dim {
          size: 2048
        }
      }
    }
  }
  attr {
    key: "shared_name"
    value {
      s: ""
    }
  }
}
node {
  name: "v0/resnet_v113/conv46/batchnorm46/moving_variance/read"
  op: "Identity"
  input: "v0/resnet_v113/conv46/batchnorm46/moving_variance"
  attr {
    key: "T"
    value {
      type: DT_FLOAT
    }
  }
  attr {
    key: "_class"
    value {
      list {
        s: "loc:@v0/resnet_v113/conv46/batchnorm46/moving_variance"
      }
    }
  }
}
node {
  name: "v0/resnet_v113/conv46/batchnorm46/FusedBatchNorm"
  op: "FusedBatchNorm"
  input: "v0/resnet_v113/conv46/conv2d/Conv2D"
  input: "v0/resnet_v113/conv46/batchnorm46/gamma/read"
  input: "v0/resnet_v113/conv46/batchnorm46/beta/read"
  input: "v0/resnet_v113/conv46/batchnorm46/moving_mean/read"
  input: "v0/resnet_v113/conv46/batchnorm46/moving_variance/read"
  attr {
    key: "T"
    value {
      type: DT_FLOAT
    }
  }
  attr {
    key: "data_format"
    value {
      s: "NHWC"
    }
  }
  attr {
    key: "epsilon"
    value {
      f: 1.00099996416e-05
    }
  }
  attr {
    key: "is_training"
    value {
      b: false
    }
  }
}
node {
  name: "v0/resnet_v113/AddN"
  op: "AddN"
  input: "v0/resnet_v113/conv43/batchnorm43/FusedBatchNorm"
  input: "v0/resnet_v113/conv46/batchnorm46/FusedBatchNorm"
  attr {
    key: "N"
    value {
      i: 2
    }
  }
  attr {
    key: "T"
    value {
      type: DT_FLOAT
    }
  }
}
node {
  name: "v0/resnet_v113/Relu"
  op: "Relu"
  input: "v0/resnet_v113/AddN"
  attr {
    key: "T"
    value {
      type: DT_FLOAT
    }
  }
}
node {
  name: "v0/resnet_v114/conv47/conv2d/kernel"
  op: "VariableV2"
  attr {
    key: "_class"
    value {
      list {
        s: "loc:@v0/resnet_v114/conv47/conv2d/kernel"
      }
    }
  }
  attr {
    key: "container"
    value {
      s: ""
    }
  }
  attr {
    key: "dtype"
    value {
      type: DT_FLOAT
    }
  }
  attr {
    key: "shape"
    value {
      shape {
        dim {
          size: 1
        }
        dim {
          size: 1
        }
        dim {
          size: 2048
        }
        dim {
          size: 512
        }
      }
    }
  }
  attr {
    key: "shared_name"
    value {
      s: ""
    }
  }
}
node {
  name: "v0/resnet_v114/conv47/conv2d/kernel/read"
  op: "Identity"
  input: "v0/resnet_v114/conv47/conv2d/kernel"
  attr {
    key: "T"
    value {
      type: DT_FLOAT
    }
  }
  attr {
    key: "_class"
    value {
      list {
        s: "loc:@v0/resnet_v114/conv47/conv2d/kernel"
      }
    }
  }
}
node {
  name: "v0/resnet_v114/conv47/conv2d/Conv2D"
  op: "Conv2D"
  input: "v0/resnet_v113/Relu"
  input: "v0/resnet_v114/conv47/conv2d/kernel/read"
  attr {
    key: "T"
    value {
      type: DT_FLOAT
    }
  }
  attr {
    key: "data_format"
    value {
      s: "NHWC"
    }
  }
  attr {
    key: "dilations"
    value {
      list {
        i: 1
        i: 1
        i: 1
        i: 1
      }
    }
  }
  attr {
    key: "padding"
    value {
      s: "SAME"
    }
  }
  attr {
    key: "strides"
    value {
      list {
        i: 1
        i: 1
        i: 1
        i: 1
      }
    }
  }
  attr {
    key: "use_cudnn_on_gpu"
    value {
      b: true
    }
  }
}
node {
  name: "v0/resnet_v114/conv47/batchnorm47/gamma"
  op: "VariableV2"
  attr {
    key: "_class"
    value {
      list {
        s: "loc:@v0/resnet_v114/conv47/batchnorm47/gamma"
      }
    }
  }
  attr {
    key: "container"
    value {
      s: ""
    }
  }
  attr {
    key: "dtype"
    value {
      type: DT_FLOAT
    }
  }
  attr {
    key: "shape"
    value {
      shape {
        dim {
          size: 512
        }
      }
    }
  }
  attr {
    key: "shared_name"
    value {
      s: ""
    }
  }
}
node {
  name: "v0/resnet_v114/conv47/batchnorm47/gamma/read"
  op: "Identity"
  input: "v0/resnet_v114/conv47/batchnorm47/gamma"
  attr {
    key: "T"
    value {
      type: DT_FLOAT
    }
  }
  attr {
    key: "_class"
    value {
      list {
        s: "loc:@v0/resnet_v114/conv47/batchnorm47/gamma"
      }
    }
  }
}
node {
  name: "v0/resnet_v114/conv47/batchnorm47/beta"
  op: "VariableV2"
  attr {
    key: "_class"
    value {
      list {
        s: "loc:@v0/resnet_v114/conv47/batchnorm47/beta"
      }
    }
  }
  attr {
    key: "container"
    value {
      s: ""
    }
  }
  attr {
    key: "dtype"
    value {
      type: DT_FLOAT
    }
  }
  attr {
    key: "shape"
    value {
      shape {
        dim {
          size: 512
        }
      }
    }
  }
  attr {
    key: "shared_name"
    value {
      s: ""
    }
  }
}
node {
  name: "v0/resnet_v114/conv47/batchnorm47/beta/read"
  op: "Identity"
  input: "v0/resnet_v114/conv47/batchnorm47/beta"
  attr {
    key: "T"
    value {
      type: DT_FLOAT
    }
  }
  attr {
    key: "_class"
    value {
      list {
        s: "loc:@v0/resnet_v114/conv47/batchnorm47/beta"
      }
    }
  }
}
node {
  name: "v0/resnet_v114/conv47/batchnorm47/moving_mean"
  op: "VariableV2"
  attr {
    key: "_class"
    value {
      list {
        s: "loc:@v0/resnet_v114/conv47/batchnorm47/moving_mean"
      }
    }
  }
  attr {
    key: "container"
    value {
      s: ""
    }
  }
  attr {
    key: "dtype"
    value {
      type: DT_FLOAT
    }
  }
  attr {
    key: "shape"
    value {
      shape {
        dim {
          size: 512
        }
      }
    }
  }
  attr {
    key: "shared_name"
    value {
      s: ""
    }
  }
}
node {
  name: "v0/resnet_v114/conv47/batchnorm47/moving_mean/read"
  op: "Identity"
  input: "v0/resnet_v114/conv47/batchnorm47/moving_mean"
  attr {
    key: "T"
    value {
      type: DT_FLOAT
    }
  }
  attr {
    key: "_class"
    value {
      list {
        s: "loc:@v0/resnet_v114/conv47/batchnorm47/moving_mean"
      }
    }
  }
}
node {
  name: "v0/resnet_v114/conv47/batchnorm47/moving_variance"
  op: "VariableV2"
  attr {
    key: "_class"
    value {
      list {
        s: "loc:@v0/resnet_v114/conv47/batchnorm47/moving_variance"
      }
    }
  }
  attr {
    key: "container"
    value {
      s: ""
    }
  }
  attr {
    key: "dtype"
    value {
      type: DT_FLOAT
    }
  }
  attr {
    key: "shape"
    value {
      shape {
        dim {
          size: 512
        }
      }
    }
  }
  attr {
    key: "shared_name"
    value {
      s: ""
    }
  }
}
node {
  name: "v0/resnet_v114/conv47/batchnorm47/moving_variance/read"
  op: "Identity"
  input: "v0/resnet_v114/conv47/batchnorm47/moving_variance"
  attr {
    key: "T"
    value {
      type: DT_FLOAT
    }
  }
  attr {
    key: "_class"
    value {
      list {
        s: "loc:@v0/resnet_v114/conv47/batchnorm47/moving_variance"
      }
    }
  }
}
node {
  name: "v0/resnet_v114/conv47/batchnorm47/FusedBatchNorm"
  op: "FusedBatchNorm"
  input: "v0/resnet_v114/conv47/conv2d/Conv2D"
  input: "v0/resnet_v114/conv47/batchnorm47/gamma/read"
  input: "v0/resnet_v114/conv47/batchnorm47/beta/read"
  input: "v0/resnet_v114/conv47/batchnorm47/moving_mean/read"
  input: "v0/resnet_v114/conv47/batchnorm47/moving_variance/read"
  attr {
    key: "T"
    value {
      type: DT_FLOAT
    }
  }
  attr {
    key: "data_format"
    value {
      s: "NHWC"
    }
  }
  attr {
    key: "epsilon"
    value {
      f: 1.00099996416e-05
    }
  }
  attr {
    key: "is_training"
    value {
      b: false
    }
  }
}
node {
  name: "v0/resnet_v114/conv47/Relu"
  op: "Relu"
  input: "v0/resnet_v114/conv47/batchnorm47/FusedBatchNorm"
  attr {
    key: "T"
    value {
      type: DT_FLOAT
    }
  }
}
node {
  name: "v0/resnet_v114/conv48/conv2d/kernel"
  op: "VariableV2"
  attr {
    key: "_class"
    value {
      list {
        s: "loc:@v0/resnet_v114/conv48/conv2d/kernel"
      }
    }
  }
  attr {
    key: "container"
    value {
      s: ""
    }
  }
  attr {
    key: "dtype"
    value {
      type: DT_FLOAT
    }
  }
  attr {
    key: "shape"
    value {
      shape {
        dim {
          size: 3
        }
        dim {
          size: 3
        }
        dim {
          size: 512
        }
        dim {
          size: 512
        }
      }
    }
  }
  attr {
    key: "shared_name"
    value {
      s: ""
    }
  }
}
node {
  name: "v0/resnet_v114/conv48/conv2d/kernel/read"
  op: "Identity"
  input: "v0/resnet_v114/conv48/conv2d/kernel"
  attr {
    key: "T"
    value {
      type: DT_FLOAT
    }
  }
  attr {
    key: "_class"
    value {
      list {
        s: "loc:@v0/resnet_v114/conv48/conv2d/kernel"
      }
    }
  }
}
node {
  name: "v0/resnet_v114/conv48/conv2d/Conv2D"
  op: "Conv2D"
  input: "v0/resnet_v114/conv47/Relu"
  input: "v0/resnet_v114/conv48/conv2d/kernel/read"
  attr {
    key: "T"
    value {
      type: DT_FLOAT
    }
  }
  attr {
    key: "data_format"
    value {
      s: "NHWC"
    }
  }
  attr {
    key: "dilations"
    value {
      list {
        i: 1
        i: 1
        i: 1
        i: 1
      }
    }
  }
  attr {
    key: "padding"
    value {
      s: "SAME"
    }
  }
  attr {
    key: "strides"
    value {
      list {
        i: 1
        i: 1
        i: 1
        i: 1
      }
    }
  }
  attr {
    key: "use_cudnn_on_gpu"
    value {
      b: true
    }
  }
}
node {
  name: "v0/resnet_v114/conv48/batchnorm48/gamma"
  op: "VariableV2"
  attr {
    key: "_class"
    value {
      list {
        s: "loc:@v0/resnet_v114/conv48/batchnorm48/gamma"
      }
    }
  }
  attr {
    key: "container"
    value {
      s: ""
    }
  }
  attr {
    key: "dtype"
    value {
      type: DT_FLOAT
    }
  }
  attr {
    key: "shape"
    value {
      shape {
        dim {
          size: 512
        }
      }
    }
  }
  attr {
    key: "shared_name"
    value {
      s: ""
    }
  }
}
node {
  name: "v0/resnet_v114/conv48/batchnorm48/gamma/read"
  op: "Identity"
  input: "v0/resnet_v114/conv48/batchnorm48/gamma"
  attr {
    key: "T"
    value {
      type: DT_FLOAT
    }
  }
  attr {
    key: "_class"
    value {
      list {
        s: "loc:@v0/resnet_v114/conv48/batchnorm48/gamma"
      }
    }
  }
}
node {
  name: "v0/resnet_v114/conv48/batchnorm48/beta"
  op: "VariableV2"
  attr {
    key: "_class"
    value {
      list {
        s: "loc:@v0/resnet_v114/conv48/batchnorm48/beta"
      }
    }
  }
  attr {
    key: "container"
    value {
      s: ""
    }
  }
  attr {
    key: "dtype"
    value {
      type: DT_FLOAT
    }
  }
  attr {
    key: "shape"
    value {
      shape {
        dim {
          size: 512
        }
      }
    }
  }
  attr {
    key: "shared_name"
    value {
      s: ""
    }
  }
}
node {
  name: "v0/resnet_v114/conv48/batchnorm48/beta/read"
  op: "Identity"
  input: "v0/resnet_v114/conv48/batchnorm48/beta"
  attr {
    key: "T"
    value {
      type: DT_FLOAT
    }
  }
  attr {
    key: "_class"
    value {
      list {
        s: "loc:@v0/resnet_v114/conv48/batchnorm48/beta"
      }
    }
  }
}
node {
  name: "v0/resnet_v114/conv48/batchnorm48/moving_mean"
  op: "VariableV2"
  attr {
    key: "_class"
    value {
      list {
        s: "loc:@v0/resnet_v114/conv48/batchnorm48/moving_mean"
      }
    }
  }
  attr {
    key: "container"
    value {
      s: ""
    }
  }
  attr {
    key: "dtype"
    value {
      type: DT_FLOAT
    }
  }
  attr {
    key: "shape"
    value {
      shape {
        dim {
          size: 512
        }
      }
    }
  }
  attr {
    key: "shared_name"
    value {
      s: ""
    }
  }
}
node {
  name: "v0/resnet_v114/conv48/batchnorm48/moving_mean/read"
  op: "Identity"
  input: "v0/resnet_v114/conv48/batchnorm48/moving_mean"
  attr {
    key: "T"
    value {
      type: DT_FLOAT
    }
  }
  attr {
    key: "_class"
    value {
      list {
        s: "loc:@v0/resnet_v114/conv48/batchnorm48/moving_mean"
      }
    }
  }
}
node {
  name: "v0/resnet_v114/conv48/batchnorm48/moving_variance"
  op: "VariableV2"
  attr {
    key: "_class"
    value {
      list {
        s: "loc:@v0/resnet_v114/conv48/batchnorm48/moving_variance"
      }
    }
  }
  attr {
    key: "container"
    value {
      s: ""
    }
  }
  attr {
    key: "dtype"
    value {
      type: DT_FLOAT
    }
  }
  attr {
    key: "shape"
    value {
      shape {
        dim {
          size: 512
        }
      }
    }
  }
  attr {
    key: "shared_name"
    value {
      s: ""
    }
  }
}
node {
  name: "v0/resnet_v114/conv48/batchnorm48/moving_variance/read"
  op: "Identity"
  input: "v0/resnet_v114/conv48/batchnorm48/moving_variance"
  attr {
    key: "T"
    value {
      type: DT_FLOAT
    }
  }
  attr {
    key: "_class"
    value {
      list {
        s: "loc:@v0/resnet_v114/conv48/batchnorm48/moving_variance"
      }
    }
  }
}
node {
  name: "v0/resnet_v114/conv48/batchnorm48/FusedBatchNorm"
  op: "FusedBatchNorm"
  input: "v0/resnet_v114/conv48/conv2d/Conv2D"
  input: "v0/resnet_v114/conv48/batchnorm48/gamma/read"
  input: "v0/resnet_v114/conv48/batchnorm48/beta/read"
  input: "v0/resnet_v114/conv48/batchnorm48/moving_mean/read"
  input: "v0/resnet_v114/conv48/batchnorm48/moving_variance/read"
  attr {
    key: "T"
    value {
      type: DT_FLOAT
    }
  }
  attr {
    key: "data_format"
    value {
      s: "NHWC"
    }
  }
  attr {
    key: "epsilon"
    value {
      f: 1.00099996416e-05
    }
  }
  attr {
    key: "is_training"
    value {
      b: false
    }
  }
}
node {
  name: "v0/resnet_v114/conv48/Relu"
  op: "Relu"
  input: "v0/resnet_v114/conv48/batchnorm48/FusedBatchNorm"
  attr {
    key: "T"
    value {
      type: DT_FLOAT
    }
  }
}
node {
  name: "v0/resnet_v114/conv49/conv2d/kernel"
  op: "VariableV2"
  attr {
    key: "_class"
    value {
      list {
        s: "loc:@v0/resnet_v114/conv49/conv2d/kernel"
      }
    }
  }
  attr {
    key: "container"
    value {
      s: ""
    }
  }
  attr {
    key: "dtype"
    value {
      type: DT_FLOAT
    }
  }
  attr {
    key: "shape"
    value {
      shape {
        dim {
          size: 1
        }
        dim {
          size: 1
        }
        dim {
          size: 512
        }
        dim {
          size: 2048
        }
      }
    }
  }
  attr {
    key: "shared_name"
    value {
      s: ""
    }
  }
}
node {
  name: "v0/resnet_v114/conv49/conv2d/kernel/read"
  op: "Identity"
  input: "v0/resnet_v114/conv49/conv2d/kernel"
  attr {
    key: "T"
    value {
      type: DT_FLOAT
    }
  }
  attr {
    key: "_class"
    value {
      list {
        s: "loc:@v0/resnet_v114/conv49/conv2d/kernel"
      }
    }
  }
}
node {
  name: "v0/resnet_v114/conv49/conv2d/Conv2D"
  op: "Conv2D"
  input: "v0/resnet_v114/conv48/Relu"
  input: "v0/resnet_v114/conv49/conv2d/kernel/read"
  attr {
    key: "T"
    value {
      type: DT_FLOAT
    }
  }
  attr {
    key: "data_format"
    value {
      s: "NHWC"
    }
  }
  attr {
    key: "dilations"
    value {
      list {
        i: 1
        i: 1
        i: 1
        i: 1
      }
    }
  }
  attr {
    key: "padding"
    value {
      s: "SAME"
    }
  }
  attr {
    key: "strides"
    value {
      list {
        i: 1
        i: 1
        i: 1
        i: 1
      }
    }
  }
  attr {
    key: "use_cudnn_on_gpu"
    value {
      b: true
    }
  }
}
node {
  name: "v0/resnet_v114/conv49/batchnorm49/gamma"
  op: "VariableV2"
  attr {
    key: "_class"
    value {
      list {
        s: "loc:@v0/resnet_v114/conv49/batchnorm49/gamma"
      }
    }
  }
  attr {
    key: "container"
    value {
      s: ""
    }
  }
  attr {
    key: "dtype"
    value {
      type: DT_FLOAT
    }
  }
  attr {
    key: "shape"
    value {
      shape {
        dim {
          size: 2048
        }
      }
    }
  }
  attr {
    key: "shared_name"
    value {
      s: ""
    }
  }
}
node {
  name: "v0/resnet_v114/conv49/batchnorm49/gamma/read"
  op: "Identity"
  input: "v0/resnet_v114/conv49/batchnorm49/gamma"
  attr {
    key: "T"
    value {
      type: DT_FLOAT
    }
  }
  attr {
    key: "_class"
    value {
      list {
        s: "loc:@v0/resnet_v114/conv49/batchnorm49/gamma"
      }
    }
  }
}
node {
  name: "v0/resnet_v114/conv49/batchnorm49/beta"
  op: "VariableV2"
  attr {
    key: "_class"
    value {
      list {
        s: "loc:@v0/resnet_v114/conv49/batchnorm49/beta"
      }
    }
  }
  attr {
    key: "container"
    value {
      s: ""
    }
  }
  attr {
    key: "dtype"
    value {
      type: DT_FLOAT
    }
  }
  attr {
    key: "shape"
    value {
      shape {
        dim {
          size: 2048
        }
      }
    }
  }
  attr {
    key: "shared_name"
    value {
      s: ""
    }
  }
}
node {
  name: "v0/resnet_v114/conv49/batchnorm49/beta/read"
  op: "Identity"
  input: "v0/resnet_v114/conv49/batchnorm49/beta"
  attr {
    key: "T"
    value {
      type: DT_FLOAT
    }
  }
  attr {
    key: "_class"
    value {
      list {
        s: "loc:@v0/resnet_v114/conv49/batchnorm49/beta"
      }
    }
  }
}
node {
  name: "v0/resnet_v114/conv49/batchnorm49/moving_mean"
  op: "VariableV2"
  attr {
    key: "_class"
    value {
      list {
        s: "loc:@v0/resnet_v114/conv49/batchnorm49/moving_mean"
      }
    }
  }
  attr {
    key: "container"
    value {
      s: ""
    }
  }
  attr {
    key: "dtype"
    value {
      type: DT_FLOAT
    }
  }
  attr {
    key: "shape"
    value {
      shape {
        dim {
          size: 2048
        }
      }
    }
  }
  attr {
    key: "shared_name"
    value {
      s: ""
    }
  }
}
node {
  name: "v0/resnet_v114/conv49/batchnorm49/moving_mean/read"
  op: "Identity"
  input: "v0/resnet_v114/conv49/batchnorm49/moving_mean"
  attr {
    key: "T"
    value {
      type: DT_FLOAT
    }
  }
  attr {
    key: "_class"
    value {
      list {
        s: "loc:@v0/resnet_v114/conv49/batchnorm49/moving_mean"
      }
    }
  }
}
node {
  name: "v0/resnet_v114/conv49/batchnorm49/moving_variance"
  op: "VariableV2"
  attr {
    key: "_class"
    value {
      list {
        s: "loc:@v0/resnet_v114/conv49/batchnorm49/moving_variance"
      }
    }
  }
  attr {
    key: "container"
    value {
      s: ""
    }
  }
  attr {
    key: "dtype"
    value {
      type: DT_FLOAT
    }
  }
  attr {
    key: "shape"
    value {
      shape {
        dim {
          size: 2048
        }
      }
    }
  }
  attr {
    key: "shared_name"
    value {
      s: ""
    }
  }
}
node {
  name: "v0/resnet_v114/conv49/batchnorm49/moving_variance/read"
  op: "Identity"
  input: "v0/resnet_v114/conv49/batchnorm49/moving_variance"
  attr {
    key: "T"
    value {
      type: DT_FLOAT
    }
  }
  attr {
    key: "_class"
    value {
      list {
        s: "loc:@v0/resnet_v114/conv49/batchnorm49/moving_variance"
      }
    }
  }
}
node {
  name: "v0/resnet_v114/conv49/batchnorm49/FusedBatchNorm"
  op: "FusedBatchNorm"
  input: "v0/resnet_v114/conv49/conv2d/Conv2D"
  input: "v0/resnet_v114/conv49/batchnorm49/gamma/read"
  input: "v0/resnet_v114/conv49/batchnorm49/beta/read"
  input: "v0/resnet_v114/conv49/batchnorm49/moving_mean/read"
  input: "v0/resnet_v114/conv49/batchnorm49/moving_variance/read"
  attr {
    key: "T"
    value {
      type: DT_FLOAT
    }
  }
  attr {
    key: "data_format"
    value {
      s: "NHWC"
    }
  }
  attr {
    key: "epsilon"
    value {
      f: 1.00099996416e-05
    }
  }
  attr {
    key: "is_training"
    value {
      b: false
    }
  }
}
node {
  name: "v0/resnet_v114/AddN"
  op: "AddN"
  input: "v0/resnet_v113/Relu"
  input: "v0/resnet_v114/conv49/batchnorm49/FusedBatchNorm"
  attr {
    key: "N"
    value {
      i: 2
    }
  }
  attr {
    key: "T"
    value {
      type: DT_FLOAT
    }
  }
}
node {
  name: "v0/resnet_v114/Relu"
  op: "Relu"
  input: "v0/resnet_v114/AddN"
  attr {
    key: "T"
    value {
      type: DT_FLOAT
    }
  }
}
node {
  name: "v0/resnet_v115/conv50/conv2d/kernel"
  op: "VariableV2"
  attr {
    key: "_class"
    value {
      list {
        s: "loc:@v0/resnet_v115/conv50/conv2d/kernel"
      }
    }
  }
  attr {
    key: "container"
    value {
      s: ""
    }
  }
  attr {
    key: "dtype"
    value {
      type: DT_FLOAT
    }
  }
  attr {
    key: "shape"
    value {
      shape {
        dim {
          size: 1
        }
        dim {
          size: 1
        }
        dim {
          size: 2048
        }
        dim {
          size: 512
        }
      }
    }
  }
  attr {
    key: "shared_name"
    value {
      s: ""
    }
  }
}
node {
  name: "v0/resnet_v115/conv50/conv2d/kernel/read"
  op: "Identity"
  input: "v0/resnet_v115/conv50/conv2d/kernel"
  attr {
    key: "T"
    value {
      type: DT_FLOAT
    }
  }
  attr {
    key: "_class"
    value {
      list {
        s: "loc:@v0/resnet_v115/conv50/conv2d/kernel"
      }
    }
  }
}
node {
  name: "v0/resnet_v115/conv50/conv2d/Conv2D"
  op: "Conv2D"
  input: "v0/resnet_v114/Relu"
  input: "v0/resnet_v115/conv50/conv2d/kernel/read"
  attr {
    key: "T"
    value {
      type: DT_FLOAT
    }
  }
  attr {
    key: "data_format"
    value {
      s: "NHWC"
    }
  }
  attr {
    key: "dilations"
    value {
      list {
        i: 1
        i: 1
        i: 1
        i: 1
      }
    }
  }
  attr {
    key: "padding"
    value {
      s: "SAME"
    }
  }
  attr {
    key: "strides"
    value {
      list {
        i: 1
        i: 1
        i: 1
        i: 1
      }
    }
  }
  attr {
    key: "use_cudnn_on_gpu"
    value {
      b: true
    }
  }
}
node {
  name: "v0/resnet_v115/conv50/batchnorm50/gamma"
  op: "VariableV2"
  attr {
    key: "_class"
    value {
      list {
        s: "loc:@v0/resnet_v115/conv50/batchnorm50/gamma"
      }
    }
  }
  attr {
    key: "container"
    value {
      s: ""
    }
  }
  attr {
    key: "dtype"
    value {
      type: DT_FLOAT
    }
  }
  attr {
    key: "shape"
    value {
      shape {
        dim {
          size: 512
        }
      }
    }
  }
  attr {
    key: "shared_name"
    value {
      s: ""
    }
  }
}
node {
  name: "v0/resnet_v115/conv50/batchnorm50/gamma/read"
  op: "Identity"
  input: "v0/resnet_v115/conv50/batchnorm50/gamma"
  attr {
    key: "T"
    value {
      type: DT_FLOAT
    }
  }
  attr {
    key: "_class"
    value {
      list {
        s: "loc:@v0/resnet_v115/conv50/batchnorm50/gamma"
      }
    }
  }
}
node {
  name: "v0/resnet_v115/conv50/batchnorm50/beta"
  op: "VariableV2"
  attr {
    key: "_class"
    value {
      list {
        s: "loc:@v0/resnet_v115/conv50/batchnorm50/beta"
      }
    }
  }
  attr {
    key: "container"
    value {
      s: ""
    }
  }
  attr {
    key: "dtype"
    value {
      type: DT_FLOAT
    }
  }
  attr {
    key: "shape"
    value {
      shape {
        dim {
          size: 512
        }
      }
    }
  }
  attr {
    key: "shared_name"
    value {
      s: ""
    }
  }
}
node {
  name: "v0/resnet_v115/conv50/batchnorm50/beta/read"
  op: "Identity"
  input: "v0/resnet_v115/conv50/batchnorm50/beta"
  attr {
    key: "T"
    value {
      type: DT_FLOAT
    }
  }
  attr {
    key: "_class"
    value {
      list {
        s: "loc:@v0/resnet_v115/conv50/batchnorm50/beta"
      }
    }
  }
}
node {
  name: "v0/resnet_v115/conv50/batchnorm50/moving_mean"
  op: "VariableV2"
  attr {
    key: "_class"
    value {
      list {
        s: "loc:@v0/resnet_v115/conv50/batchnorm50/moving_mean"
      }
    }
  }
  attr {
    key: "container"
    value {
      s: ""
    }
  }
  attr {
    key: "dtype"
    value {
      type: DT_FLOAT
    }
  }
  attr {
    key: "shape"
    value {
      shape {
        dim {
          size: 512
        }
      }
    }
  }
  attr {
    key: "shared_name"
    value {
      s: ""
    }
  }
}
node {
  name: "v0/resnet_v115/conv50/batchnorm50/moving_mean/read"
  op: "Identity"
  input: "v0/resnet_v115/conv50/batchnorm50/moving_mean"
  attr {
    key: "T"
    value {
      type: DT_FLOAT
    }
  }
  attr {
    key: "_class"
    value {
      list {
        s: "loc:@v0/resnet_v115/conv50/batchnorm50/moving_mean"
      }
    }
  }
}
node {
  name: "v0/resnet_v115/conv50/batchnorm50/moving_variance"
  op: "VariableV2"
  attr {
    key: "_class"
    value {
      list {
        s: "loc:@v0/resnet_v115/conv50/batchnorm50/moving_variance"
      }
    }
  }
  attr {
    key: "container"
    value {
      s: ""
    }
  }
  attr {
    key: "dtype"
    value {
      type: DT_FLOAT
    }
  }
  attr {
    key: "shape"
    value {
      shape {
        dim {
          size: 512
        }
      }
    }
  }
  attr {
    key: "shared_name"
    value {
      s: ""
    }
  }
}
node {
  name: "v0/resnet_v115/conv50/batchnorm50/moving_variance/read"
  op: "Identity"
  input: "v0/resnet_v115/conv50/batchnorm50/moving_variance"
  attr {
    key: "T"
    value {
      type: DT_FLOAT
    }
  }
  attr {
    key: "_class"
    value {
      list {
        s: "loc:@v0/resnet_v115/conv50/batchnorm50/moving_variance"
      }
    }
  }
}
node {
  name: "v0/resnet_v115/conv50/batchnorm50/FusedBatchNorm"
  op: "FusedBatchNorm"
  input: "v0/resnet_v115/conv50/conv2d/Conv2D"
  input: "v0/resnet_v115/conv50/batchnorm50/gamma/read"
  input: "v0/resnet_v115/conv50/batchnorm50/beta/read"
  input: "v0/resnet_v115/conv50/batchnorm50/moving_mean/read"
  input: "v0/resnet_v115/conv50/batchnorm50/moving_variance/read"
  attr {
    key: "T"
    value {
      type: DT_FLOAT
    }
  }
  attr {
    key: "data_format"
    value {
      s: "NHWC"
    }
  }
  attr {
    key: "epsilon"
    value {
      f: 1.00099996416e-05
    }
  }
  attr {
    key: "is_training"
    value {
      b: false
    }
  }
}
node {
  name: "v0/resnet_v115/conv50/Relu"
  op: "Relu"
  input: "v0/resnet_v115/conv50/batchnorm50/FusedBatchNorm"
  attr {
    key: "T"
    value {
      type: DT_FLOAT
    }
  }
}
node {
  name: "v0/resnet_v115/conv51/conv2d/kernel"
  op: "VariableV2"
  attr {
    key: "_class"
    value {
      list {
        s: "loc:@v0/resnet_v115/conv51/conv2d/kernel"
      }
    }
  }
  attr {
    key: "container"
    value {
      s: ""
    }
  }
  attr {
    key: "dtype"
    value {
      type: DT_FLOAT
    }
  }
  attr {
    key: "shape"
    value {
      shape {
        dim {
          size: 3
        }
        dim {
          size: 3
        }
        dim {
          size: 512
        }
        dim {
          size: 512
        }
      }
    }
  }
  attr {
    key: "shared_name"
    value {
      s: ""
    }
  }
}
node {
  name: "v0/resnet_v115/conv51/conv2d/kernel/read"
  op: "Identity"
  input: "v0/resnet_v115/conv51/conv2d/kernel"
  attr {
    key: "T"
    value {
      type: DT_FLOAT
    }
  }
  attr {
    key: "_class"
    value {
      list {
        s: "loc:@v0/resnet_v115/conv51/conv2d/kernel"
      }
    }
  }
}
node {
  name: "v0/resnet_v115/conv51/conv2d/Conv2D"
  op: "Conv2D"
  input: "v0/resnet_v115/conv50/Relu"
  input: "v0/resnet_v115/conv51/conv2d/kernel/read"
  attr {
    key: "T"
    value {
      type: DT_FLOAT
    }
  }
  attr {
    key: "data_format"
    value {
      s: "NHWC"
    }
  }
  attr {
    key: "dilations"
    value {
      list {
        i: 1
        i: 1
        i: 1
        i: 1
      }
    }
  }
  attr {
    key: "padding"
    value {
      s: "SAME"
    }
  }
  attr {
    key: "strides"
    value {
      list {
        i: 1
        i: 1
        i: 1
        i: 1
      }
    }
  }
  attr {
    key: "use_cudnn_on_gpu"
    value {
      b: true
    }
  }
}
node {
  name: "v0/resnet_v115/conv51/batchnorm51/gamma"
  op: "VariableV2"
  attr {
    key: "_class"
    value {
      list {
        s: "loc:@v0/resnet_v115/conv51/batchnorm51/gamma"
      }
    }
  }
  attr {
    key: "container"
    value {
      s: ""
    }
  }
  attr {
    key: "dtype"
    value {
      type: DT_FLOAT
    }
  }
  attr {
    key: "shape"
    value {
      shape {
        dim {
          size: 512
        }
      }
    }
  }
  attr {
    key: "shared_name"
    value {
      s: ""
    }
  }
}
node {
  name: "v0/resnet_v115/conv51/batchnorm51/gamma/read"
  op: "Identity"
  input: "v0/resnet_v115/conv51/batchnorm51/gamma"
  attr {
    key: "T"
    value {
      type: DT_FLOAT
    }
  }
  attr {
    key: "_class"
    value {
      list {
        s: "loc:@v0/resnet_v115/conv51/batchnorm51/gamma"
      }
    }
  }
}
node {
  name: "v0/resnet_v115/conv51/batchnorm51/beta"
  op: "VariableV2"
  attr {
    key: "_class"
    value {
      list {
        s: "loc:@v0/resnet_v115/conv51/batchnorm51/beta"
      }
    }
  }
  attr {
    key: "container"
    value {
      s: ""
    }
  }
  attr {
    key: "dtype"
    value {
      type: DT_FLOAT
    }
  }
  attr {
    key: "shape"
    value {
      shape {
        dim {
          size: 512
        }
      }
    }
  }
  attr {
    key: "shared_name"
    value {
      s: ""
    }
  }
}
node {
  name: "v0/resnet_v115/conv51/batchnorm51/beta/read"
  op: "Identity"
  input: "v0/resnet_v115/conv51/batchnorm51/beta"
  attr {
    key: "T"
    value {
      type: DT_FLOAT
    }
  }
  attr {
    key: "_class"
    value {
      list {
        s: "loc:@v0/resnet_v115/conv51/batchnorm51/beta"
      }
    }
  }
}
node {
  name: "v0/resnet_v115/conv51/batchnorm51/moving_mean"
  op: "VariableV2"
  attr {
    key: "_class"
    value {
      list {
        s: "loc:@v0/resnet_v115/conv51/batchnorm51/moving_mean"
      }
    }
  }
  attr {
    key: "container"
    value {
      s: ""
    }
  }
  attr {
    key: "dtype"
    value {
      type: DT_FLOAT
    }
  }
  attr {
    key: "shape"
    value {
      shape {
        dim {
          size: 512
        }
      }
    }
  }
  attr {
    key: "shared_name"
    value {
      s: ""
    }
  }
}
node {
  name: "v0/resnet_v115/conv51/batchnorm51/moving_mean/read"
  op: "Identity"
  input: "v0/resnet_v115/conv51/batchnorm51/moving_mean"
  attr {
    key: "T"
    value {
      type: DT_FLOAT
    }
  }
  attr {
    key: "_class"
    value {
      list {
        s: "loc:@v0/resnet_v115/conv51/batchnorm51/moving_mean"
      }
    }
  }
}
node {
  name: "v0/resnet_v115/conv51/batchnorm51/moving_variance"
  op: "VariableV2"
  attr {
    key: "_class"
    value {
      list {
        s: "loc:@v0/resnet_v115/conv51/batchnorm51/moving_variance"
      }
    }
  }
  attr {
    key: "container"
    value {
      s: ""
    }
  }
  attr {
    key: "dtype"
    value {
      type: DT_FLOAT
    }
  }
  attr {
    key: "shape"
    value {
      shape {
        dim {
          size: 512
        }
      }
    }
  }
  attr {
    key: "shared_name"
    value {
      s: ""
    }
  }
}
node {
  name: "v0/resnet_v115/conv51/batchnorm51/moving_variance/read"
  op: "Identity"
  input: "v0/resnet_v115/conv51/batchnorm51/moving_variance"
  attr {
    key: "T"
    value {
      type: DT_FLOAT
    }
  }
  attr {
    key: "_class"
    value {
      list {
        s: "loc:@v0/resnet_v115/conv51/batchnorm51/moving_variance"
      }
    }
  }
}
node {
  name: "v0/resnet_v115/conv51/batchnorm51/FusedBatchNorm"
  op: "FusedBatchNorm"
  input: "v0/resnet_v115/conv51/conv2d/Conv2D"
  input: "v0/resnet_v115/conv51/batchnorm51/gamma/read"
  input: "v0/resnet_v115/conv51/batchnorm51/beta/read"
  input: "v0/resnet_v115/conv51/batchnorm51/moving_mean/read"
  input: "v0/resnet_v115/conv51/batchnorm51/moving_variance/read"
  attr {
    key: "T"
    value {
      type: DT_FLOAT
    }
  }
  attr {
    key: "data_format"
    value {
      s: "NHWC"
    }
  }
  attr {
    key: "epsilon"
    value {
      f: 1.00099996416e-05
    }
  }
  attr {
    key: "is_training"
    value {
      b: false
    }
  }
}
node {
  name: "v0/resnet_v115/conv51/Relu"
  op: "Relu"
  input: "v0/resnet_v115/conv51/batchnorm51/FusedBatchNorm"
  attr {
    key: "T"
    value {
      type: DT_FLOAT
    }
  }
}
node {
  name: "v0/resnet_v115/conv52/conv2d/kernel"
  op: "VariableV2"
  attr {
    key: "_class"
    value {
      list {
        s: "loc:@v0/resnet_v115/conv52/conv2d/kernel"
      }
    }
  }
  attr {
    key: "container"
    value {
      s: ""
    }
  }
  attr {
    key: "dtype"
    value {
      type: DT_FLOAT
    }
  }
  attr {
    key: "shape"
    value {
      shape {
        dim {
          size: 1
        }
        dim {
          size: 1
        }
        dim {
          size: 512
        }
        dim {
          size: 2048
        }
      }
    }
  }
  attr {
    key: "shared_name"
    value {
      s: ""
    }
  }
}
node {
  name: "v0/resnet_v115/conv52/conv2d/kernel/read"
  op: "Identity"
  input: "v0/resnet_v115/conv52/conv2d/kernel"
  attr {
    key: "T"
    value {
      type: DT_FLOAT
    }
  }
  attr {
    key: "_class"
    value {
      list {
        s: "loc:@v0/resnet_v115/conv52/conv2d/kernel"
      }
    }
  }
}
node {
  name: "v0/resnet_v115/conv52/conv2d/Conv2D"
  op: "Conv2D"
  input: "v0/resnet_v115/conv51/Relu"
  input: "v0/resnet_v115/conv52/conv2d/kernel/read"
  attr {
    key: "T"
    value {
      type: DT_FLOAT
    }
  }
  attr {
    key: "data_format"
    value {
      s: "NHWC"
    }
  }
  attr {
    key: "dilations"
    value {
      list {
        i: 1
        i: 1
        i: 1
        i: 1
      }
    }
  }
  attr {
    key: "padding"
    value {
      s: "SAME"
    }
  }
  attr {
    key: "strides"
    value {
      list {
        i: 1
        i: 1
        i: 1
        i: 1
      }
    }
  }
  attr {
    key: "use_cudnn_on_gpu"
    value {
      b: true
    }
  }
}
node {
  name: "v0/resnet_v115/conv52/batchnorm52/gamma"
  op: "VariableV2"
  attr {
    key: "_class"
    value {
      list {
        s: "loc:@v0/resnet_v115/conv52/batchnorm52/gamma"
      }
    }
  }
  attr {
    key: "container"
    value {
      s: ""
    }
  }
  attr {
    key: "dtype"
    value {
      type: DT_FLOAT
    }
  }
  attr {
    key: "shape"
    value {
      shape {
        dim {
          size: 2048
        }
      }
    }
  }
  attr {
    key: "shared_name"
    value {
      s: ""
    }
  }
}
node {
  name: "v0/resnet_v115/conv52/batchnorm52/gamma/read"
  op: "Identity"
  input: "v0/resnet_v115/conv52/batchnorm52/gamma"
  attr {
    key: "T"
    value {
      type: DT_FLOAT
    }
  }
  attr {
    key: "_class"
    value {
      list {
        s: "loc:@v0/resnet_v115/conv52/batchnorm52/gamma"
      }
    }
  }
}
node {
  name: "v0/resnet_v115/conv52/batchnorm52/beta"
  op: "VariableV2"
  attr {
    key: "_class"
    value {
      list {
        s: "loc:@v0/resnet_v115/conv52/batchnorm52/beta"
      }
    }
  }
  attr {
    key: "container"
    value {
      s: ""
    }
  }
  attr {
    key: "dtype"
    value {
      type: DT_FLOAT
    }
  }
  attr {
    key: "shape"
    value {
      shape {
        dim {
          size: 2048
        }
      }
    }
  }
  attr {
    key: "shared_name"
    value {
      s: ""
    }
  }
}
node {
  name: "v0/resnet_v115/conv52/batchnorm52/beta/read"
  op: "Identity"
  input: "v0/resnet_v115/conv52/batchnorm52/beta"
  attr {
    key: "T"
    value {
      type: DT_FLOAT
    }
  }
  attr {
    key: "_class"
    value {
      list {
        s: "loc:@v0/resnet_v115/conv52/batchnorm52/beta"
      }
    }
  }
}
node {
  name: "v0/resnet_v115/conv52/batchnorm52/moving_mean"
  op: "VariableV2"
  attr {
    key: "_class"
    value {
      list {
        s: "loc:@v0/resnet_v115/conv52/batchnorm52/moving_mean"
      }
    }
  }
  attr {
    key: "container"
    value {
      s: ""
    }
  }
  attr {
    key: "dtype"
    value {
      type: DT_FLOAT
    }
  }
  attr {
    key: "shape"
    value {
      shape {
        dim {
          size: 2048
        }
      }
    }
  }
  attr {
    key: "shared_name"
    value {
      s: ""
    }
  }
}
node {
  name: "v0/resnet_v115/conv52/batchnorm52/moving_mean/read"
  op: "Identity"
  input: "v0/resnet_v115/conv52/batchnorm52/moving_mean"
  attr {
    key: "T"
    value {
      type: DT_FLOAT
    }
  }
  attr {
    key: "_class"
    value {
      list {
        s: "loc:@v0/resnet_v115/conv52/batchnorm52/moving_mean"
      }
    }
  }
}
node {
  name: "v0/resnet_v115/conv52/batchnorm52/moving_variance"
  op: "VariableV2"
  attr {
    key: "_class"
    value {
      list {
        s: "loc:@v0/resnet_v115/conv52/batchnorm52/moving_variance"
      }
    }
  }
  attr {
    key: "container"
    value {
      s: ""
    }
  }
  attr {
    key: "dtype"
    value {
      type: DT_FLOAT
    }
  }
  attr {
    key: "shape"
    value {
      shape {
        dim {
          size: 2048
        }
      }
    }
  }
  attr {
    key: "shared_name"
    value {
      s: ""
    }
  }
}
node {
  name: "v0/resnet_v115/conv52/batchnorm52/moving_variance/read"
  op: "Identity"
  input: "v0/resnet_v115/conv52/batchnorm52/moving_variance"
  attr {
    key: "T"
    value {
      type: DT_FLOAT
    }
  }
  attr {
    key: "_class"
    value {
      list {
        s: "loc:@v0/resnet_v115/conv52/batchnorm52/moving_variance"
      }
    }
  }
}
node {
  name: "v0/resnet_v115/conv52/batchnorm52/FusedBatchNorm"
  op: "FusedBatchNorm"
  input: "v0/resnet_v115/conv52/conv2d/Conv2D"
  input: "v0/resnet_v115/conv52/batchnorm52/gamma/read"
  input: "v0/resnet_v115/conv52/batchnorm52/beta/read"
  input: "v0/resnet_v115/conv52/batchnorm52/moving_mean/read"
  input: "v0/resnet_v115/conv52/batchnorm52/moving_variance/read"
  attr {
    key: "T"
    value {
      type: DT_FLOAT
    }
  }
  attr {
    key: "data_format"
    value {
      s: "NHWC"
    }
  }
  attr {
    key: "epsilon"
    value {
      f: 1.00099996416e-05
    }
  }
  attr {
    key: "is_training"
    value {
      b: false
    }
  }
}
node {
  name: "v0/resnet_v115/AddN"
  op: "AddN"
  input: "v0/resnet_v114/Relu"
  input: "v0/resnet_v115/conv52/batchnorm52/FusedBatchNorm"
  attr {
    key: "N"
    value {
      i: 2
    }
  }
  attr {
    key: "T"
    value {
      type: DT_FLOAT
    }
  }
}
node {
  name: "v0/resnet_v115/Relu"
  op: "Relu"
  input: "v0/resnet_v115/AddN"
  attr {
    key: "T"
    value {
      type: DT_FLOAT
    }
  }
}
node {
  name: "v0/apool0/AvgPool"
  op: "AvgPool"
  input: "v0/resnet_v115/Relu"
  attr {
    key: "T"
    value {
      type: DT_FLOAT
    }
  }
  attr {
    key: "data_format"
    value {
      s: "NHWC"
    }
  }
  attr {
    key: "ksize"
    value {
      list {
        i: 1
        i: 7
        i: 7
        i: 1
      }
    }
  }
  attr {
    key: "padding"
    value {
      s: "VALID"
    }
  }
  attr {
    key: "strides"
    value {
      list {
        i: 1
        i: 1
        i: 1
        i: 1
      }
    }
  }
}
node {
  name: "v0/Reshape/shape"
  op: "Const"
  attr {
    key: "dtype"
    value {
      type: DT_INT32
    }
  }
  attr {
    key: "value"
    value {
      tensor {
        dtype: DT_INT32
        tensor_shape {
          dim {
            size: 2
          }
        }
        tensor_content: "\377\377\377\377\000\010\000\000"
      }
    }
  }
}
node {
  name: "v0/Reshape"
  op: "Reshape"
  input: "v0/apool0/AvgPool"
  input: "v0/Reshape/shape"
  attr {
    key: "T"
    value {
      type: DT_FLOAT
    }
  }
  attr {
    key: "Tshape"
    value {
      type: DT_INT32
    }
  }
}
node {
  name: "v0/affine0/weights"
  op: "VariableV2"
  attr {
    key: "_class"
    value {
      list {
        s: "loc:@v0/affine0/weights"
      }
    }
  }
  attr {
    key: "container"
    value {
      s: ""
    }
  }
  attr {
    key: "dtype"
    value {
      type: DT_FLOAT
    }
  }
  attr {
    key: "shape"
    value {
      shape {
        dim {
          size: 1001
        }
        dim {
          size: 2048
        }
      }
    }
  }
  attr {
    key: "shared_name"
    value {
      s: ""
    }
  }
}
node {
  name: "v0/affine0/weights/read"
  op: "Identity"
  input: "v0/affine0/weights"
  attr {
    key: "T"
    value {
      type: DT_FLOAT
    }
  }
  attr {
    key: "_class"
    value {
      list {
        s: "loc:@v0/affine0/weights"
      }
    }
  }
}
node {
  name: "v0/affine0/biases"
  op: "VariableV2"
  attr {
    key: "_class"
    value {
      list {
        s: "loc:@v0/affine0/biases"
      }
    }
  }
  attr {
    key: "container"
    value {
      s: ""
    }
  }
  attr {
    key: "dtype"
    value {
      type: DT_FLOAT
    }
  }
  attr {
    key: "shape"
    value {
      shape {
        dim {
          size: 1001
        }
      }
    }
  }
  attr {
    key: "shared_name"
    value {
      s: ""
    }
  }
}
node {
  name: "v0/affine0/biases/read"
  op: "Identity"
  input: "v0/affine0/biases"
  attr {
    key: "T"
    value {
      type: DT_FLOAT
    }
  }
  attr {
    key: "_class"
    value {
      list {
        s: "loc:@v0/affine0/biases"
      }
    }
  }
}
node {
  name: "v0/affine0/MatMul"
  op: "MatMul"
  input: "v0/Reshape"
  input: "v0/affine0/weights/read"
  attr {
    key: "T"
    value {
      type: DT_FLOAT
    }
  }
  attr {
    key: "transpose_a"
    value {
      b: false
    }
  }
  attr {
    key: "transpose_b"
    value {
      b: true
    }
  }
}
node {
  name: "v0/affine0/add"
  op: "Add"
  input: "v0/affine0/MatMul"
  input: "v0/affine0/biases/read"
  attr {
    key: "T"
    value {
      type: DT_FLOAT
    }
  }
}
node {
  name: "predict"
  op: "Softmax"
  input: "v0/affine0/add"
  attr {
    key: "T"
    value {
      type: DT_FLOAT
    }
  }
}
library {
}
versions {
  producer: 26
}
